wakeword_model.pth (torch, 391892 bytes, 8 tensors)

conv1.weight f4 [16, 1, 3, 3]
00000000: f4a0 ad3e 6fe0 60be 78fb 443e 068b d13d
00000010: 10fa 92bd bb3f 653e a7cb 98bd 7b30 a5be
00000020: bb9e 3b3e f903 8f3e 8301 393e fabd 4f3e
00000030: 71c8 b7be bf10 58be abfe e2bd 8aec cfbd
00000040: 6d46 07be 3e0d d03d 9981 b53e 4b69 e3bd
00000050: 309c a23c 2f52 9e3e 2283 6fbe 9c5b 32be
00000060: b505 673e 65e2 903e 2485 50be 56d0 363e
00000070: 79d4 f9bd 26f2 21bc 2f37 653d 141d 19be
00000080: 3100 ae3d acdb ce3c 9351 0a3e 05cb 1ebe
00000090: adb1 3fbe 9238 213d 656a b9be 0c74 a43e
000000a0: ea5b 573e 9e9a 473d e398 623e a8fd a3be
000000b0: 1e76 b2bb facd de3c b806 9abe 25de 34bd
000000c0: c8ca afbb ef45 32be 7373 3f3e ebbc 8c3e
000000d0: c8b5 9e3e 78b6 e7bc 6ef7 edbc 1ea2 9a3d
000000e0: 4005 b23e e495 45be 9bcd d0bd eadf 513e
000000f0: ddf1 f3bc e79b 3c3e e176 833d e536 54be
00000100: 443d 953e cacb 2d3e ee0b a6be 4993 543d
00000110: baa2 9e3c 691c 59be 7294 b93c 5af7 38be
00000120: f8fa ab3e 24f8 9c3e 09ad 5dbe 62ad 5e3e
00000130: 2549 6dbe 7a14 2e3e b2d2 96be 1faf 4d3e
00000140: 8724 b2bd 60e9 abbc de2b 0a3e b437 9bbe
00000150: bf6d 073d 5adf 793e 3618 9bbd d1d1 94be
00000160: b442 8b3e f9d7 06be 862a 4f3e b672 00be
00000170: 65f7 a83c 2488 fc3c 6a79 573e 3724 783e
00000180: 4738 8fbe 4937 a5bc 35ce 023e 862b a73e
00000190: c775 893e f5c8 093e cd44 553d 2524 c9bd
000001a0: 622a 4c3e 64a5 ec3d d021 80be 48c3 2bbd
000001b0: 6cfc abbd f96c 04bd 7a91 8dbd d82e 8b3e
000001c0: 6711 2dbe 4870 b4be 12d7 55be 8d2b c4be
000001d0: f78d 7fbe 1cea 59be 7600 8d3e ca61 583d
000001e0: f732 7bbe bb53 07be eab6 89be f122 8bbe
000001f0: 037a 2bbd d8dd 673d 9ed5 f83d 99f1 6fbe
00000200: e40b 053e 2738 193e df25 94be c222 eb3d
00000210: 983e cb3e c6ba 6f3d e84f 7bbe d5db bebe
00000220: 2ce7 9bbe 2b68 e3bd bd0c 56bd 1f72 97be
00000230: f204 a0be 926e 0fbe 6edb 71be b09a 323e
0.3391186 -0.21960615 0.19236553 0.10231595 -0.07176602 0.22387592 -0.074607186 -0.3226355
0.1832227 0.27932718 0.18066983 0.20287314 -0.35895112 -0.21100138 -0.1108373 -0.10152538
-0.13210459 0.10158776 0.35450438 -0.111040674 0.019849867 0.30922076 -0.23389867 -0.17417759
0.22560771 0.28297725 -0.20363289 0.17852911 -0.12198729 -0.009884393 0.05596083 -0.14952499
0.0849613 0.025251232 0.1350768 -0.15507133 -0.18720122 0.03936059 -0.36213985 0.32119787
0.21031156 0.04873144 0.22128634 -0.32029462 -0.0054462096 0.027197827 -0.3008325 -0.044157166
-0.0053647496 -0.1740949 0.18696384 0.27487883 0.30998063 -0.02828525 -0.029048648 0.07550453
0.3476963 -0.1929546 -0.10195466 0.20495573 -0.029778415 0.18418847 0.06419159 -0.20724066
0.29148304 0.1697227 -0.32430977 0.051898275 0.019364703 -0.21202244 0.022653792 -0.18063107
0.3358991 0.30658066 -0.21648039 0.21745828 -0.23172434 0.16999999 -0.29457623 0.20086335
-0.08698373 -0.020985305 0.13493297 -0.30315936 0.033063646 0.24401608 -0.07572977 -0.29066327
0.27199328 -0.13168325 0.20231065 -0.12543759 0.02062578 0.030826636 0.2104241 0.24232565
-0.27972624 -0.020167964 0.12773974 0.32650393 0.2684767 0.13455565 0.052067567 -0.09821347
0.19938043 0.11554983 -0.25025797 -0.04193428 -0.08397755 -0.032330487 -0.06912513 0.27184176
-0.1690117 -0.35241914 -0.20882824 -0.38314477 -0.24956499 -0.21280712 0.27539414 0.052827634
-0.2453116 -0.13215534 -0.26897365 -0.27175096 -0.041864406 0.05660805 0.12150119 -0.23432006
0.12992817 0.14962827 -0.28935143 0.11481239 0.39696193 0.05852773 -0.245422 -0.37277094
-0.30449808 -0.11103853 -0.052258242 -0.29579255 -0.31253773 -0.14007023 -0.23618862 0.17441821

conv1.bias f4 [16]
00000000: 8ba8 48be 31a7 a73d d21d 97be 220c 993d
00000010: 569c 813e 002c 3e3e dc6f 67be 0254 69be
00000020: 33f4 efbd 2102 da3c b919 913d 6bfd a3be
00000030: cf00 2a3e 47d6 11be a0a5 33bc e097 dbbd
-0.19595544 0.08186186 -0.2951494 0.07473017 0.25314587 0.18571472 -0.22601265 -0.22785953
-0.11716499 0.026612343 0.07084984 -0.3202928 0.16601871 -0.14241897 -0.010964781 -0.10722327

conv2.weight f4 [32, 16, 3, 3]
00000000: 6e1d 883d eb48 8abd 6670 8d3c 0a4b 18bd
00000010: 3cbf b13a 9988 a3bd 461d 56bd ebac 47bd
00000020: 7b30 9b3c f374 d7bc f52f a33d 19c4 893d
00000030: 56a8 84bb 01f0 1fbd 5c31 07bd 1e39 68bd
00000040: f53d 1d3d 0b92 a13d dd46 653b 24ec 35bd
00000050: 3b70 863c 0f5d 1ebd a419 403d 870f 2fbd
00000060: 79ba 5bbd 4617 5ebd a2ef 3b3d fd3e fcbc
00000070: dd14 953d 876e 93bd dc10 133d 7b9a 3d3d
00000080: 685c 37bb 2e86 b6bd c0c0 b53c 63e4 85bd
00000090: adf8 553d 0b0a 14bd 2290 91bd df58 fb3c
000000a0: 5202 0bbd d2d0 973d 4310 8bbd 26db d63b
000000b0: e38a 0fbd aebe db3d c069 28bd 8422 3fbb
000000c0: 3aa5 d63d 932e 36bd be0e 403d febb 75bd
000000d0: c004 023d 687b f23c 54a1 cc3d 2437 13bd
000000e0: aba0 e9bd 1eb7 8abd 369b 8ebd fead a1bd
000000f0: 118f b43c 4597 8abb ccbb 31bd 86b4 bb3d
00000100: 198c b9bc d55a 47bd 3837 a63d 7478 0d3d
00000110: c092 21ba 7f06 b6bd cec4 413c dd94 073d
00000120: 1f3c 873d 07d8 82bd 1163 90bd f944 16bd
00000130: 1282 0abc 068a 27bd 5d0d 9a3b b073 8d3d
00000140: f467 853d 34de 853b 02ce 7ebd 6997 79bc
00000150: 4abd 62bd ab3e b1bc d0f9 083d 13e4 e53b
00000160: 7e76 4d3d 666d d2bd 256e 81bd 6f6a 9fbb
00000170: f62d f0bb 7af6 663c 2e02 20bd cb95 6dbd
00000180: 702b cb3d 7f3f 9a3d 2d83 08bd f5a1 033d
00000190: 8bee 0cbd 502b 203c 2ebd 7dbd 870e da3c
000001a0: a504 92bd 0204 1bbc ec8e a9bb ccf3 8c3d
000001b0: 1b2a 0b3d b11f 943d c25d 93bc 0719 a1bd
000001c0: acb6 3bbd 0669 a53d a24e 10be 280e 993d
000001d0: e69a 043d d8b1 903d 47bf bf3d 18de 84bd
000001e0: d2dc b63c 4619 a2bc d628 6ebd 8b37 99bd
000001f0: 5420 0b3d 5a4a 5ebd e48b a43d 6862 aa3d
00000200: cccf 593d c233 953d 85d2 803d 1250 873d
00000210: 4580 9dbd 566d c23d ddde f0bc d3fb c7bc
00000220: a853 adbc cb35 d1bd e006 163c 660e df3b
00000230: 9bdb f4bc ad52 b1bd fb26 19bd 2072 183e
00000240: 4d3a 8f3c 7324 573d a26b 9c3c 1559 08bd
00000250: b40b 56bd f40d 61bd 73a4 f5bc 996f 5f3c
00000260: 57ed 373d d8a6 e3bc b874 e6bc 4719 103d
00000270: 7817 563d 25b6 633d b026 f03b 4390 9abd
00000280: c635 e03c 6a8e 3bbc 7e4a 8cbd 26ac e6bb
00000290: d916 b83d 5d6f 4a3d 6845 febc a362 8e3d
000002a0: 3e02 d8bc b818 cabd 2c29 613c 906d d3bc
000002b0: 48ed 343c ba9c c0bc 48c3 9dbd 94c3 4d3d
000002c0: bc8f a03d 245d 0c3d 17ee 9dbc 7217 8bbd
000002d0: 0565 55bd 0425 f13c eeab 95bc a32c 8fbd
000002e0: dc32 6a3d 8fa5 023d eb1f c3bd d931 033c
000002f0: cbfb 703d 8d85 2bbc 86f4 4abc 7d16 393d
00000300: 4b1b 163d e7a5 7d3d 2b0f fa3c ecfc 1e3d
00000310: 3ab7 92bd f89a 83bd 0451 b7bd 1dce a23d
00000320: e508 943d fabb afbd 4ccd 0e3c fa5e 33ba
00000330: 6fe0 433d b1e1 7fbd 973d d63d 014e 8a3d
00000340: ab84 653d 36c6 21bd a407 d33c 1840 15bb
00000350: 781c 733d f38d 3ebd af48 97bd d6f8 15bb
00000360: 9b02 4ebd 0334 42bd 6281 333d 3f6f 1fbd
00000370: 0389 8ebd 7f06 833d 72ef 6b3d 29f4 7abd
00000380: 83a5 4b3d bd74 0a3d 3615 a1bd ad02 943d
00000390: dd53 673d 62df 84bc 0cf3 863d 4bd3 94bc
000003a0: 3bcb 4139 719a 8c3d dfe9 75bc 8ee0 b1bd
000003b0: dc0f 833d 0355 583c 93b4 8cbd 65d0 cebc
000003c0: 42d9 053c 0c5b aabc d3af 09bd 9d28 9cbd
000003d0: c3ea dabd 54b8 85bd f0e7 8abc 0ce6 d4bc
000003e0: 4f4b c53d 6b92 71bd aced 1c3c abc1 363d
000003f0: 3bd2 663c 8477 9dbd f646 aabb 9743 cbbc
0.06646238 -0.06752189 0.01726551 -0.037180938 0.0013561021 -0.07985038 -0.05227401 -0.04874889
0.018944016 -0.026300883 0.079681315 0.06726856 -0.0040483875 -0.039047245 -0.033006057 -0.056695096
0.038389165 0.078891836 0.0034984865 -0.044414654 0.016410938 -0.038662966 0.046899453 -0.042739417
-0.05364463 -0.054221414 0.04588283 -0.030791754 0.0727937 -0.07198816 0.03590475 0.046289902
-0.0027978662 -0.089123115 0.022186637 -0.06537702 0.05223911 -0.03614239 -0.07107569 0.030682025
-0.03393776 0.07412876 -0.06790211 0.0065568862 -0.035044562 0.10729729 -0.041116476 -0.002916486
0.10480733 -0.04447801 0.04688906 -0.059993736 0.03174281 0.02959986 0.099917084 -0.035941258
-0.11407598 -0.06773208 -0.06963198 -0.078945145 0.022040876 -0.0042294585 -0.043391988 0.091652915
-0.022649812 -0.04867061 0.08116001 0.0345387 -0.000616353 -0.08887958 0.011826707 0.03310095
0.06603264 -0.0638886 -0.070501454 -0.03668687 -0.008453863 -0.040903114 0.0047013 0.06906831
0.06513968 0.0040853266 -0.062208183 -0.015233853 -0.0553563 -0.021636328 0.033441365 0.007015714
0.05016183 -0.10274772 -0.063198365 -0.004864983 -0.0073296977 0.0140968505 -0.03906458 -0.05800418
0.099203944 0.07531642 -0.033328224 0.032136876 -0.03440718 0.0097759515 -0.061947994 0.026618255
-0.07129792 -0.009461405 -0.0051745083 0.06882438 0.0339757 0.07232607 -0.017989043 -0.07866102
-0.045828506 0.08076672 -0.14092496 0.07473403 0.032374285 0.07065171 0.09362655 -0.064876735
0.022322092 -0.019787442 -0.058144413 -0.07481297 0.033966377 -0.054270126 0.080344945 0.08319551
0.053176686 0.07285263 0.062901534 0.06607069 -0.07690481 0.094935104 -0.029403144 -0.024412071
-0.021158054 -0.10215338 0.009156913 0.0068071363 -0.029889872 -0.08658347 -0.03739069 0.14887285
0.017483855 0.052524995 0.019094292 -0.03328808 -0.052257255 -0.054944947 -0.029985642 0.013637447
0.04490408 -0.027789518 -0.028131828 0.035180356 0.052268475 0.05559363 0.0073288307 -0.07547047
0.027369391 -0.011447528 -0.06850146 -0.0070395647 0.08988733 0.04942261 -0.031038955 0.06952407
-0.026368257 -0.09867996 0.013742726 -0.02580908 0.0110429 -0.023512233 -0.077032626 0.050235346
0.07839915 0.034268513 -0.01927857 -0.06791581 -0.052098293 0.029436596 -0.018270459 -0.06990936
0.05717741 0.03189617 -0.09527572 0.00800749 0.05883388 -0.010468853 -0.0123874005 0.045187462
0.036647122 0.061925795 0.03052481 0.038815424 -0.07163854 -0.06426042 -0.089509994 0.07949469
0.07228259 -0.085807756 0.008715939 -0.0006842461 0.04782146 -0.062471095 0.10460966 0.06753159
0.056034725 -0.03949567 0.02576048 -0.0022773799 0.05935332 -0.046522092 -0.0738691 -0.0022883913
-0.050295454 -0.047412883 0.04382456 -0.038924452 -0.06959727 0.063977234 0.0576014 -0.061268006
0.04971839 0.033802737 -0.07865374 0.07227073 0.056476463 -0.016219798 0.06589326 -0.018167159
0.00018481624 0.06865395 -0.0150093725 -0.086854085 0.06399509 0.013203862 -0.06870379 -0.025245855
0.008169474 -0.020795368 -0.033614945 -0.07624934 -0.106893085 -0.065292984 -0.0169563 -0.025988601
0.096335046 -0.058977526 0.00957815 0.04461829 0.014088209 -0.076888114 -0.0051964475 -0.024812503

conv2.bias f4 [32]
00000000: 76f9 23bd 2982 6a3d 1fb3 a53b 5e62 43bd
00000010: 8191 c2bd aa78 6abd dca0 12bb 9243 0b3d
00000020: ef22 573d d229 483d bf92 97bd c5c7 493d
00000030: a6ba 83bd 5029 8d3d dbaf 2ebc 4a7f aa3c
00000040: ff79 adba 76ac 5d3d a593 8d3b 8b93 433d
00000050: 58b3 9e3c ecda d83b f52d bcbd 1b77 fa3c
00000060: 594c 7bbd bdcc 98bd 5377 ad3c f1a7 9abd
00000070: de74 32bd c4dd 7fbd 4ef6 98bd 6de3 8bbd
-0.040032826 0.057253037 0.0050567533 -0.047701232 -0.09500409 -0.05724398 -0.0022373712 0.033999987
0.05252355 0.048868008 -0.074010365 0.04926278 -0.06432085 0.06892645 -0.010662044 0.02081265
-0.001323521 0.05411955 0.004320579 0.04774813 0.019372627 0.0066178944 -0.09188453 0.030574372
-0.061352108 -0.07460926 0.021175062 -0.075515635 -0.043568484 -0.06246735 -0.07468854 -0.068304874

fc1.weight f4 [64, 1440]
00000000: 6e6d 82bc e854 f6bb 1848 56bb fa7b f53b
00000010: 6a77 563c 8e09 c9bc 6cbc 47bc 20d6 073a
00000020: 01e3 c3bc e41e 183b 5ba6 96bc c004 013a
00000030: ee64 ce3c 69c0 963c 4874 50bb 32a8 dd38
00000040: 8811 003b 6d5a d13c ba3b d4bc b7ca 4bbc
00000050: 6f38 933c 60b0 883a b4ef 9f3b 7ac2 6d3c
00000060: 60d7 34bc 9eb1 afbc ff82 823c 6609 383c
00000070: 7deb 39bb 1212 96bc b7eb 993c 32ae 97bc
00000080: 709d ce3a a379 883c 147b ccbb db96 83bc
00000090: 0093 0f3b a362 813c 0ca7 ce3b 425f 4b3c
000000a0: e912 983c 9397 c43c c624 2fbc db0c 9a3c
000000b0: 6c0e e6bb 7f63 14bc a088 d13b b4ff 833c
000000c0: 60dd 323b d049 36bc a5ab 87bc e209 80bc
000000d0: a737 853c 7a20 e53b c789 8fbc c3fe 48bc
000000e0: e460 b8bc 0523 16bc 4e1c a8bc bfe7 9d3b
000000f0: 1be4 a7bb 22a5 653b ae38 82b9 1b94 20bc
00000100: e044 65bc fbb4 b1ba 5101 b73b 54a5 d73b
00000110: efd0 3dbc 47ea 773c a5ac b13c 084e f1bc
00000120: cb37 193c fd16 cebb d6e0 8a3c 05c2 803a
00000130: dbb0 8cba 96ab b13c 92c3 8cbc 5907 82bc
00000140: 002d 1bbc 3e0e afbc 1ea2 883c 9151 ef3b
00000150: ce4d 78ba 209a f6bb 03cf 7fbc d8d1 213b
00000160: 09d4 cebc 937f 80bc aaa6 9e3c 15e2 c13c
00000170: d100 8e3c 9928 babc 5832 70bb e78f ae3c
00000180: ffe1 8e3c 65f5 82bc 9051 8d3b d43a f4bc
00000190: fad2 1f3c b285 6a3c 3eae dc3a af87 bdbc
000001a0: cf53 f7bc 45a2 363c cab3 3d3c 2a0e 053c
000001b0: f5a4 1cbb 7add 9dbc 1174 c2bc a71d 0e3c
000001c0: f280 c7bc 98d3 73bc 270d adbc bb1c b0bc
000001d0: 28e2 27bb d480 133c 79bd 96bc 7ab9 b9bc
000001e0: 74bf 833c a0a3 6abc 3d48 803c 8b55 973c
000001f0: a6ae acbc ee73 323c 9de2 ae3c d4fc a7bc
00000200: 471e 913c 83ee 293c b87d 2dbb 7798 d33c
00000210: 14e2 c7bc 583b 58bb 5ef6 cfbc 81ff 4e3c
00000220: e6cf 96bc 84d3 88bc 58ea c33b dbe5 d53c
00000230: 3f49 b93c 3cdb c3bc f1d9 b83c 30f9 71bb
00000240: 0592 ce39 e3c2 c43c 9082 933a 39a0 a3bb
00000250: 4dd1 a13c ec0e 91bb 2c58 d6bc 4f5d d53c
00000260: 0043 adb9 9df8 c0bc e0c8 9ebc 36c0 403c
00000270: 63dc 583c 9335 c23c b04f 6c3b 4dbf abbc
00000280: 2495 cd3b ec52 f33b 1485 bfbc dff2 c0bc
00000290: a8a4 2ebb 3215 1b3c a289 703c f493 14bc
000002a0: 148f 1fbb bc50 c03b 3733 d73c c2e1 333c
000002b0: 27fa b43c 9e64 c9bc 9bb4 b5bc 3f10 8f3c
000002c0: 26bc 7a3c ecfb 853b e4ff 18bc 46bf a3bc
000002d0: 44ff 15bb 1d9c 5f3c fba9 17bc 232d a3bc
000002e0: 23cd a6bb 244b 0dbc c08f 80bb edf6 823c
000002f0: 868d 71bb 3d98 8bbc 59fb bcbb 8313 c4bb
00000300: 61ee 063c f0ba 57bc 2bd8 06bc b4d9 2dbc
00000310: 6f99 203c ed21 2f3c dd8f 943c 55b1 9639
00000320: 5abd 823a 1e90 823c 2afa d9bc 5dbe 8fbb
00000330: 10d5 69bc 4e6d 083c 9ce2 443b 6c29 543b
00000340: f838 463c 78a9 ecbc 75dd 82bb dcc4 7c3c
00000350: 72e7 10bc 23a6 173c be46 c0bc a273 8e3b
00000360: 99e7 ccbc 8719 99bc 8504 0ebc 8f12 09ba
00000370: d882 c0bc 5f37 c8bb 5cc6 d1bc c0bb e9bc
00000380: 6b90 663c 276a ec3b 384d a7bb 1be8 fd39
00000390: 18bc 423c 7721 56bc 245e 093b d20d f7bb
000003a0: 9dae 543c 1ec4 823b a0d5 23bc 5dc5 94bc
000003b0: 943b 91ba 91a0 a73c c36d 8e3a 1395 72ba
000003c0: 6733 823c 5ad6 293c a622 3f3b 4a41 00bc
000003d0: 5f66 8ebb e1df 1b3b d419 c43b 58bc 6e3c
000003e0: 7b6e 6f3c 5d81 adbb 3837 203c 3ebf a4bb
000003f0: 2883 64bc 2257 323b 65b2 383b ca56 293c
-0.01592132 -0.007517446 -0.003269678 0.007491586 0.013089994 -0.024540689 -0.012190919 0.00051817484
-0.023911955 0.0023211772 -0.018389871 0.0004921667 0.025194611 0.018402295 -0.003180759 0.0001056943
0.00195417 0.025555814 -0.025907386 -0.012438468 0.017971246 0.001042854 0.0048808698 0.014511699
-0.0110376775 -0.021447 0.015931604 0.0112327095 -0.0028369122 -0.018319163 0.018789155 -0.01851568
0.0015763473 0.016659563 -0.006240258 -0.016063144 0.0021907687 0.015794104 0.0063065346 0.012412848
0.018563705 0.023998057 -0.01068992 0.018804958 -0.007020762 -0.009056925 0.006394461 0.01611314
0.0027292594 -0.011125997 -0.016561339 -0.015629712 0.016261889 0.006992397 -0.017521752 -0.012267771
-0.022507139 -0.009163623 -0.02052131 0.004818886 -0.005123628 0.0035041054 -0.00024837762 -0.009800936
-0.013993472 -0.0013557965 0.0055848737 0.006580988 -0.011585458 0.01513154 0.021688769 -0.029456154
0.009351681 -0.0062893615 0.016952913 0.0009823447 -0.0010733859 0.021688264 -0.017183099 -0.015872644
-0.009471178 -0.021369096 0.016678866 0.0073034246 -0.0009472043 -0.0075256974 -0.01561332 0.0024691727
-0.02524759 -0.015685832 0.019366581 0.023667375 0.017334374 -0.022724437 -0.00366511 0.021308852
0.017441748 -0.015986154 0.0043127015 -0.029813208 0.009754891 0.014314102 0.0016836596 -0.023135988
-0.03019133 0.0111470865 0.01157851 0.008121053 -0.0023902033 -0.019270647 -0.023736985 0.008674062
-0.024353478 -0.014881991 -0.021124436 -0.021498075 -0.0025616977 0.009002883 -0.018400894 -0.02267145
0.016082503 -0.014321238 0.015659446 0.018473407 -0.021079373 0.010891898 0.021348292 -0.0205063
0.017714633 0.010371807 -0.002647264 0.025829537 -0.024399795 -0.0032994356 -0.025386032 0.012634159
-0.01840968 -0.016702421 0.0059788637 0.02611058 0.022617934 -0.02390825 0.02256486 -0.003692221
0.00039400175 0.02401871 0.0011254121 -0.0049934653 0.019753123 -0.0044268277 -0.02616509 0.02604547
-0.0003304705 -0.023556048 -0.019382894 0.011764577 0.013236138 0.023707187 0.003605824 -0.020965243
0.0062738825 0.0074256565 -0.023378886 -0.02355331 -0.0026648436 0.009465503 0.014681252 -0.009068478
-0.0024346756 0.0058689993 0.026269538 0.010979118 0.022091938 -0.02458411 -0.022180846 0.017463801
0.015303647 0.0040888693 -0.009338353 -0.019988667 -0.0022887746 0.01364806 -0.009256835 -0.019918984
-0.005090372 -0.008623872 -0.0039233863 0.015986884 -0.0036858036 -0.017040366 -0.0057672677 -0.0059837713
0.008235545 -0.013167128 -0.008230249 -0.0106109865 0.009802206 0.010689241 0.018135006 0.00028742352
0.0009974644 0.015937861 -0.026608545 -0.0043867067 -0.014271989 0.0083268415 0.0030042296 0.0032373322
0.012098543 -0.028889403 -0.003993685 0.015427794 -0.008844243 0.009255919 -0.023471233 0.0043472806
-0.025012778 -0.01868893 -0.00866807 -0.00052289007 -0.023499891 -0.0061101164 -0.02560728 -0.028531909
0.014072518 0.007214803 -0.0051056407 0.00048428852 0.011885665 -0.013069502 0.0020960653 -0.0075394893
0.012981084 0.003990664 -0.009999663 -0.018160516 -0.0011080378 0.020462306 0.0010866452 -0.0009253781
0.015893651 0.010366047 0.002916494 -0.007828066 -0.0043456997 0.0023784565 0.0059845243 0.014571272
0.014613743 -0.0052949623 0.00977879 -0.0050276807 -0.013947286 0.002721258 0.0028182503 0.0103356335

fc1.bias f4 [64]
00000000: e8b9 6ebc 9b52 80bc 69a2 853c 9a5a b33c
00000010: 9887 3dbc dfa0 9f3c c81d 81bc 5d3d 8c3c
00000020: d945 8b3c ca05 fe3c 1077 7c3c b4dc ebbb
00000030: 1e4c 493c cb72 d93c 5208 443c 2f61 1a3c
00000040: 3504 963c ad1f a1bc 1ae0 3c3a 5796 aebc
00000050: 1875 2cbc 5183 ff3c b502 e83c 937f 233b
00000060: b9bb bcbb 3470 1e3b 2e86 423c 6298 f6bb
00000070: fd7c 8c3c 8c27 94bc 8407 10b9 f0f9 0ebd
00000080: 41f6 aabb 1683 c0bc 2a5a e8bc f51c aebc
00000090: 83e1 183c 8335 7fbc 94d5 823c 8841 b63c
000000a0: 10a7 9d3c 69f4 1a3c 004a bebc 56bb 49bc
000000b0: d019 a93b 2067 bdbc 649a a6bc 19d0 d2bc
000000c0: 7345 843c fe9e 613c 7cd6 553c 0bbb 9abc
000000d0: 04d7 a63a d9b5 04bd 1849 c5bc 925c 0fbc
000000e0: f81c 903b 7603 be3c e9fb 233c d1ff 9dbc
000000f0: 7ba9 5b3c 5172 813b d53e 7bbc 88ea b4bc
-0.014570691 -0.01566439 0.016312795 0.021893788 -0.011567973 0.019485889 -0.015761271 0.017119104
0.01700108 0.03100862 0.015409246 -0.0071979407 0.012286214 0.026543995 0.011964874 0.009422584
0.018312553 -0.019668425 0.00072050246 -0.021311922 -0.010525964 0.031190546 0.028321603 0.0024947866
-0.005759683 0.0024175765 0.011872811 -0.0075254897 0.017149443 -0.018085264 -0.0001373571 -0.034906328
-0.005217344 -0.023500007 -0.028363306 -0.021254042 0.00933111 -0.015576723 0.015970983 0.022248045
0.0192447 0.009457686 -0.023228645 -0.012312731 0.005160548 -0.023120463 -0.020337291 -0.025733994
0.016146397 0.013770817 0.013051625 -0.018888017 0.0012728875 -0.032399986 -0.024082705 -0.008750098
0.0043979846 0.02319501 0.0100087905 -0.019287022 0.0134071065 0.003950395 -0.015334805 -0.02208449

fc2.weight f4 [2, 64]
00000000: c6b1 acbb 2163 893d 7b9f fd3d a236 e5bd
00000010: 8fd4 ae3d d50f b43b 44b5 96bc 679a 16be
00000020: 7028 67bd 9562 96bd 7e2e 873d ea74 6ebc
00000030: b663 143d 62fa 23bd 0a8d c53d a9a8 e6bd
00000040: c983 3d3d 3c15 1dbc 4383 1b3e a099 90bc
00000050: 3723 913d 8de8 e4bd e26d 9bbd 82c7 3e3d
00000060: 9e55 33bc 12ed 923c 0d71 983d 4ed4 0cbc
00000070: 8c11 03be 6833 aebd e0a7 fabd 506b b73d
00000080: 2e8c 283b 0e97 89bd 1337 243d 76cd f9bd
00000090: 9fc4 74bd 8bc3 6ebd 1ce6 4a3c 152e 12be
000000a0: db8e cfbd cc52 5f3c 6c32 3b3d 0a39 d5bc
000000b0: 50a4 b5bd ee70 debd 9a45 b03c df3c 48bd
000000c0: cae4 133c c80b cb3d 4d43 dc3d 3419 2e3d
000000d0: a013 9bbd 60f3 663d 5cd6 3bbd 310f 22bd
000000e0: 39a4 5e3d 00b6 493c 8821 25bb 93f7 45bd
000000f0: 86b5 68bd 8ce3 abbd d640 bcbd 6eca e13d
00000100: dcf9 9ebd bf27 d1bd da90 b2bd 28b9 ca3d
00000110: 399e dfbd 97b5 58bd b6a6 493d 4e61 a33d
00000120: 640e cf3d cb19 f23d 4725 4cbc d80f 073e
00000130: 6c0d a1bd 46a4 653d 91b5 15be b55a f3bd
00000140: 51fe 753d 8c4f 86bd 6a9f b83b 45f7 eb3d
00000150: fe2c aabb 0a12 eb3c 7d9b 7dbc d6e4 7c3d
00000160: 32a7 bdbd b148 f7bd dd66 13bd f500 35bd
00000170: 63e6 443d 8020 1b3d 902d d73d 417f 113d
00000180: b48d 5dba 6950 2c3d 6b60 76bd 4a14 aa3d
00000190: 179b bebd 56a3 6dbd ec2c 5dbc b1ad 1cbd
000001a0: 2d18 e7bd 5b00 b8bc 64bb 3c3d d6a9 033d
000001b0: f0f8 1d3d 2255 ef3d 4b9e e8bd 450e 30bd
000001c0: 6e3f 25bd 2c2e 82bd 7c7e 193b 9dc1 253d
000001d0: 0167 bd3c 0ca3 7e3d 3879 cebd 01c2 8e3d
000001e0: 6d75 33bd 6220 1dbe dae1 89bd 9b39 d13d
000001f0: 9248 f43d fd7a d13c ea71 d63c dcf7 c93d
-0.0052702157 0.067083605 0.12383934 -0.11192061 0.08536636 0.0054950514 -0.018396981 -0.14707337
-0.05643505 -0.07343022 0.066006646 -0.014554242 0.036227904 -0.040033706 0.09646042 -0.11262638
0.04626826 -0.009587582 0.15186791 -0.01765138 0.07086795 -0.11177168 -0.07589318 0.046576984
-0.010945706 0.01793531 0.07443438 -0.008595539 -0.12799662 -0.08505899 -0.12239051 0.08956015
0.002571832 -0.067182645 0.040091585 -0.12197392 -0.059757825 -0.058291953 0.012383964 -0.14275391
-0.101346694 0.01363058 0.045702383 -0.026028175 -0.08869231 -0.108613834 0.021517564 -0.048886176
0.0090267155 0.099143565 0.10755024 0.042504504 -0.075721025 0.056384444 -0.045858726 -0.03956527
0.054355834 0.012311459 -0.0025196988 -0.04833181 -0.05681374 -0.083930105 -0.09192054 0.110249385
-0.07762501 -0.10212659 -0.087190345 0.09898597 -0.109188505 -0.052907553 0.049231254 0.07977544
0.10110167 0.11821326 -0.0124600595 0.13189638 -0.07863888 0.056064866 -0.14620043 -0.11882535
0.06005699 -0.06558141 0.005634238 0.11521772 -0.005193352 0.028695125 -0.015478966 0.061741672
-0.092604056 -0.12074412 -0.03598677 -0.044190366 0.048071276 0.03787279 0.10506737 0.03552175
-0.00084515964 0.042068873 -0.060150545 0.08304651 -0.09306925 -0.058017097 -0.01349948 -0.038251583
-0.11283908 -0.022461107 0.046077147 0.03214439 0.038567483 0.1168616 -0.11358317 -0.04298236
-0.040343694 -0.06356463 0.0023421338 0.040467847 0.023120405 0.062167212 -0.100817144 0.06970597
-0.043813158 -0.15344384 -0.06732531 0.102160655 0.11927904 0.02557134 0.026177365 0.098617285

fc2.bias f4 [2]
00000000: 7282 de3d 027e da3c
0.10864724 0.026671413
