wakeword_model.pth (torch, 391892 bytes, 8 tensors)

conv1.weight f4 [16, 1, 3, 3]
0	0xbe81c6e7	-0.25347063
1	0x3d41dff5	0.047332723
2	0xbebe393a	-0.37153035
3	0x3d92e8e7	0.07173329
4	0x3d3614e8	0.04445353
5	0xbea79387	-0.32729742
6	0xbe8e251f	-0.27762696
7	0xbe2427b8	-0.16030777
8	0xbeb51b37	-0.35372326
9	0x3c2fd7da	0.010732615
10	0x3e873476	0.26407212
11	0xbce6746a	-0.028131682
12	0xbddda602	-0.10822679
13	0x3ec48bca	0.383879
14	0x3e90a23a	0.2824877
15	0x3d13a778	0.036048383
16	0x3e88910e	0.26673168
17	0x3d81d643	0.06339695
18	0xbddea72b	-0.108717285
19	0x3c0a818f	0.008453741
20	0xbe5d0406	-0.21583566
21	0xbe311756	-0.17294058
22	0xbd7d3afa	-0.061823823
23	0xbeb479f8	-0.35249305
24	0xbe8a78aa	-0.27045184
25	0xbea1c86a	-0.31598216
26	0xbdc02d8b	-0.09383687
27	0x3e7a7859	0.24459971
28	0x3e387a70	0.18015456
29	0xbe838710	-0.25688982
30	0x3e02e2cc	0.12781829
31	0x3e6dcabb	0.23221867
32	0xbe9b5015	-0.30334535
33	0x3e0e483d	0.13894744
34	0x3cf73079	0.03017448
35	0x3b03086b	0.0019994031
36	0xbe87eb3c	-0.26546657
37	0x3e9ce8ec	0.30646455
38	0x3e9f1de6	0.31077498
39	0x3dd011be	0.10159634
40	0xbe979fbd	-0.29614058
41	0xbd05c033	-0.032654
42	0xbe5b8bcc	-0.21440047
43	0x3def874e	0.11695729
44	0x3ea9016f	0.33008906
45	0xbbf73426	-0.0075440584
46	0x3de4991d	0.111620165
47	0x3e8e4766	0.27788848
48	0x3da8747a	0.08225341
49	0x3e6ec404	0.23316962
50	0xbeb2ba8d	-0.34907952
51	0x3ea553fe	0.32290643
52	0x3e0e9eeb	0.1392781
53	0xbe8b7bd3	-0.27242908
54	0xbe584ad7	-0.21122299
55	0x3d860367	0.06543618
56	0x3e4c6973	0.199621
57	0x3e85ece0	0.26157284
58	0x3e538e8d	0.20659848
59	0x3e42546f	0.18977521
60	0x3ca591aa	0.02021106
61	0x3d2e9589	0.042623077
62	0x3ed528ae	0.416326
63	0x3d9b94e0	0.07596755
64	0xbea25745	-0.31707206
65	0x3e80a6ba	0.25127202
66	0x3ea62e33	0.32457122
67	0xbe58e144	-0.21179682
68	0xbe6168dc	-0.22012657
69	0x3e95ba93	0.29243907
70	0xbe26d6e3	-0.1629291
71	0xbe0d8e52	-0.13823822
72	0x3ea1c14b	0.31592783
73	0xbe6a0984	-0.22855192
74	0x3ebbd474	0.36685526
75	0xbce3f384	-0.027826078
76	0x3e2cb346	0.16865262
77	0x3e4eadf4	0.20183545
78	0xbb0f9460	-0.0021908507
79	0x3e3827fa	0.17984
80	0xbdbadef6	-0.09124558
81	0xbe027fa5	-0.12744005
82	0xbd916a70	-0.071003795
83	0xbe5e0f2a	-0.21685472
84	0x3e14075f	0.14455937
85	0x3e8369e6	0.25666732
86	0xbe7f7075	-0.24945243
87	0xbe6f789c	-0.23385853
88	0xbeae27f4	-0.34014857
89	0xbe277e49	-0.16356768
90	0xbe7644e2	-0.24049714
91	0x3e9b0d17	0.30283424
92	0xbe9ac1bf	-0.30225942
93	0x3e10dd86	0.14147004
94	0x3e74a4a1	0.23890926
95	0xbeadc535	-0.3393952
96	0x3eb7019f	0.35743424
97	0xbe4e5c27	-0.20152341
98	0x3e7d051e	0.24708983
99	0xbe80b9f8	-0.25141883
100	0x3e51565d	0.20443101
101	0xbec07185	-0.3758661
102	0x3d8461bc	0.06463954
103	0xbc15e822	-0.009149583
104	0x3e0923c0	0.13392544
105	0x3c6c8978	0.014437072
106	0x3e4ba6b2	0.19887808
107	0xbd14f160	-0.036363006
108	0xbe7dfa81	-0.24802591
109	0x3c8227cb	0.015888115
110	0x3e844f14	0.25841582
111	0xbe74fa4b	-0.23923604
112	0xbc857394	-0.016290464
113	0xbe925046	-0.2857687
114	0xbe8a498e	-0.27009243
115	0xbe77c2a6	-0.24195346
116	0x3d726d32	0.059186168
117	0xbc76be76	-0.015060058
118	0xbcdba7fd	-0.026813501
119	0xbec24513	-0.37943324
120	0xbdf4f708	-0.1196118
121	0xbd868195	-0.065676846
122	0xbe9bd26c	-0.30433977
123	0x3e84ec6e	0.25961632
124	0xbeafe21f	-0.34352204
125	0x3b040761	0.0020146
126	0xbd81f306	-0.06345181
127	0xbdd07f25	-0.10180501
128	0x3e9c601f	0.30542085
129	0x3e4fa281	0.20276834
130	0x3e92fa27	0.28706476
131	0x3e1403dd	0.14454599
132	0x3e88fd00	0.26755524
133	0xbe2a5640	-0.16634464
134	0x3da2f5f7	0.0795707
135	0x3b53ba58	0.0032307114
136	0xbe909e4a	-0.28245765
137	0x3e3d49c0	0.18485165
138	0x3d94d7f9	0.07267756
139	0x3da2dcf5	0.079523005
140	0xbe7dd721	-0.24789096
141	0x3e2eada7	0.1705843
142	0xbeab7589	-0.3348811
143	0x3e9576b8	0.29192138

conv1.bias f4 [16]
0	0x3c3b6f48	0.011440106
1	0xbdcd203c	-0.10015914
2	0xbd72e840	-0.059303522
3	0xbc68bcc6	-0.014205163
4	0x3d658219	0.056032274
5	0x3e9463be	0.28982347
6	0xbdafd0bf	-0.08584737
7	0x3c20e19f	0.009819417
8	0x3dc1638b	0.094428144
9	0x3e5916e7	0.21200143
10	0xbe307033	-0.172303
11	0x3e60481a	0.21902505
12	0x3e668c05	0.2251435
13	0x3e287ecf	0.16454624
14	0xbe86de24	-0.26341355
15	0x3b2572e8	0.0025245491

conv2.weight f4 [32, 16, 3, 3]
0	0x3cc8f3f2	0.024530385
1	0x3cb47eca	0.022033114
2	0x3c781e1f	0.0151439
3	0xbd404a7c	-0.046946034
4	0x3c5e2831	0.013559387
5	0x3d9a0ca6	0.07521944
6	0x3caee09d	0.021347338
7	0xbd94f79f	-0.072737925
8	0xbd38f6de	-0.045157306
9	0xbd75ca68	-0.060007483
10	0xbdb15df8	-0.08660501
11	0x3d2251cb	0.039628785
12	0xbdbccde8	-0.09218961
13	0xbd054b85	-0.032542724
14	0x3cf0f892	0.029415403
15	0xbdeff050	-0.11715758
16	0xbbbd456d	-0.0057760985
17	0xbc6d2c12	-0.014475839
18	0xbcfd06b5	-0.030886987
19	0x3d84b50b	0.06479844
20	0x3d026166	0.031831168
21	0xbd445825	-0.047935624
22	0xbb560b94	-0.003266071
23	0x3d6174be	0.055042975
24	0x3c0959b5	0.008383204
25	0xbcbe99b5	-0.023266653
26	0x3d66db96	0.056361757
27	0xbd583e27	-0.052793648
28	0xbc82a585	-0.015948066
29	0x3c90a7be	0.01765811
30	0x3d98205e	0.074280486
31	0x3d210937	0.03931543
32	0xbc412ff8	-0.011791222
33	0x3d6ac781	0.057319168
34	0xbc2f4611	-0.0106978575
35	0x3d63daf8	0.055628747
36	0xbc1a6c4e	-0.009425236
37	0x3da85aed	0.08220468
38	0x3cf4c2b9	0.029878007
39	0x3d1fbe80	0.039000034
40	0x3d141ef5	0.036162335
41	0xbd521b71	-0.0512957
42	0xbdb93e3a	-0.09045072
43	0x3d7b0b9c	0.06129037
44	0xbd926553	-0.07148232
45	0x3d808740	0.06275797
46	0x3d90f49b	0.07077905
47	0xbd9367e0	-0.07197547
48	0x3cb5fb45	0.022214541
49	0x3d1b76fe	0.037955277
50	0xbd83f44e	-0.06443082
51	0xbdb9ac2a	-0.09066041
52	0x3dae6de1	0.085170515
53	0x3ccfe44e	0.025377419
54	0xbd44f9d0	-0.048089802
55	0xbdb2906b	-0.08718952
56	0xba984237	-0.0011616413
57	0xbda37fc0	-0.07983351
58	0xbc1924e7	-0.009347177
59	0xbc34c57c	-0.011033412
60	0xbdd31bfa	-0.103080705
61	0xbda33d19	-0.07970638
62	0x3c084a6f	0.008318528
63	0xbd544a38	-0.051828593
64	0x3dc57220	0.09640908
65	0x3d16d382	0.036822803
66	0x3d8b7fe0	0.068114996
67	0x3d8be130	0.068300605
68	0xbd546a9d	-0.051859487
69	0xbd4a1ccb	-0.049343865
70	0xbd9e0957	-0.07716625
71	0xbc6bcb8d	-0.014391792
72	0xbda7f3bf	-0.08200788
73	0x3d604167	0.054749873
74	0x3d9765a9	0.07392437
75	0xbd76cd11	-0.06025416
76	0x3d944995	0.07240597
77	0x3bc71a6e	0.0060761487
78	0x3d6ee808	0.05832675
79	0x3b7a7cfb	0.0038221467
80	0x3cba8186	0.02276684
81	0x3db7b0e8	0.08969289
82	0x3d9bccf4	0.07607451
83	0xbd30988d	-0.043114234
84	0x3bc60589	0.0060431403
85	0xbcc1b35b	-0.023645094
86	0xbc4cb578	-0.012494437
87	0x3db33876	0.087510034
88	0xbd0c4d91	-0.03425366
89	0x3c7a5706	0.015279537
90	0x3c827aa3	0.015927618
91	0x3c14c9bf	0.009081303
92	0xbd84e749	-0.06489427
93	0xbcdece38	-0.027197942
94	0x3d75554f	0.05989581
95	0xbcbf77dd	-0.023372585
96	0xbdadf284	-0.08493522
97	0xbd3b7fa0	-0.04577601
98	0xbdabb045	-0.0838323
99	0x3b38c4b2	0.0028193411
100	0x3d2b4d21	0.041821603
101	0x38b9e978	8.8649744e-05
102	0xbd174ff4	-0.036941484
103	0x3d88150d	0.0664464
104	0xbd6b3dc7	-0.057431962
105	0x3ce4bfe1	0.027923526
106	0xbc0feba8	-0.008784212
107	0xbd7bb33e	-0.061450236
108	0xbc222829	-0.00989727
109	0x3da2fdfb	0.07958599
110	0x3c70e6c4	0.014703456
111	0x3ccb2aea	0.024800736
112	0xbd4f52c7	-0.050616052
113	0x3ce088e2	0.02740902
114	0x3d99b627	0.07505446
115	0xbd8ab51d	-0.06772826
116	0xbd8b2870	-0.06794822
117	0x3d8a043f	0.06739091
118	0x3dbaf7cd	0.091292955
119	0xbab2a817	-0.0013630417
120	0xbd031195	-0.03199919
121	0x3dac945f	0.08426737
122	0xbd747550	-0.05968219
123	0x3cc019f2	0.023449872
124	0xbdc054d3	-0.09391179
125	0xbd71059b	-0.058843236
126	0x3d7b96ac	0.06142299
127	0xbdd59981	-0.10429669
128	0xbac69e7e	-0.0015153436
129	0xbd0cc3d0	-0.03436643
130	0xbc8d069f	-0.017215071
131	0x3db4a531	0.0882057
132	0xbdb4cfc5	-0.088286914
133	0x3d00365b	0.031301837
134	0x3c88d040	0.016700864
135	0xbda621d3	-0.0811192
136	0xbb89153a	-0.0041834386
137	0x38ce57f0	9.839225e-05
138	0xba602fb6	-0.00085520314
139	0xbd13ff5f	-0.036132213
140	0x3cbf0ed3	0.023322498
141	0xbd17aa08	-0.03702739
142	0xbda60ec2	-0.081082836
143	0xbba08a12	-0.0048992718
144	0xbd072dca	-0.033002652
145	0x3cf2473b	0.029574981
146	0x3dfb49d2	0.122699395
147	0xbd94a7d8	-0.07258576
148	0x3ddb8927	0.10719519
149	0x3ce9119a	0.028450776
150	0xbd8d8a4f	-0.06911146
151	0x3d7ba503	0.061436664
152	0xbab75e44	-0.0013989885
153	0x3d25de4d	0.040495206
154	0x3d316a91	0.04331452
155	0xbde83d30	-0.113397956
156	0x3cd9ae2b	0.026572308
157	0xbd8ce20f	-0.06879055
158	0xbde2adf2	-0.11068334
159	0x3da1801c	0.07885763
160	0xbde3351e	-0.11094116
161	0x3cf25bcb	0.029584786
162	0x3c8b6aa8	0.017018631
163	0x3d0fc095	0.03509577
164	0x3b347952	0.0027538133
165	0xbbd49c8e	-0.0064883893
166	0x3d8cc820	0.06874108
167	0xbd4ea80c	-0.05045323
168	0x3bba4fc8	0.00568578
169	0xbd3a5587	-0.04549172
170	0x3dc4621e	0.09589027
171	0xbd247920	-0.040154576
172	0x3bb662d1	0.005565979
173	0x3a806eed	0.0009798683
174	0xbc522888	-0.012827046
175	0xbb93fe2a	-0.0045163827
176	0x3bd2bdf2	0.0064313347
177	0xbbb0b6d6	-0.0053928895
178	0xbd025a87	-0.031824615
179	0x3d12a6e5	0.035803694
180	0x3c813283	0.015771156
181	0xbde35aec	-0.11101326
182	0x3d084b4e	0.03327494
183	0x3cb7befe	0.02242994
184	0xbd260cf1	-0.040539686
185	0x3cb377fd	0.0219078
186	0x3cb67a1b	0.022275021
187	0xbdb30631	-0.08741415
188	0x3d83d586	0.06437211
189	0x3d76591d	0.06014358
190	0x3d5edaf8	0.054408044
191	0xbd6ca066	-0.057770155
192	0x3d8ef0c2	0.06979515
193	0xbd6636a7	-0.056204464
194	0xbd7344ca	-0.059391774
195	0x3a81f889	0.0009915988
196	0xbc51cc0c	-0.012804996
197	0x3dab1ebb	0.08355471
198	0x3da98213	0.08276763
199	0x3d57ee7f	0.052717682
200	0x3cf5a52e	0.02998599
201	0xbb95e071	-0.0045738746
202	0xbdaf6a0c	-0.08565149
203	0xbcd00b92	-0.025396142
204	0xbd1fb3ab	-0.038989704
205	0xbdad9961	-0.0847652
206	0x3c95b824	0.018276282
207	0xb9837470	-0.0002507302
208	0xbc9b06b8	-0.018924102
209	0x3d52bb30	0.051448047
210	0x3da9d314	0.08292213
211	0x3d0e3af8	0.034724206
212	0xbc8cf444	-0.017206319
213	0xbdabe52e	-0.08393322
214	0x3da254e4	0.07926348
215	0xbc3e2593	-0.011605638
216	0x3cf84f0f	0.030311136
217	0xbd16de83	-0.036833297
218	0xbcfa8f18	-0.03058581
219	0x3cbc267b	0.022967568
220	0xbd9c6a04	-0.076374084
221	0xbd17c0e8	-0.037049204
222	0x3d053497	0.032520857
223	0x3c447da6	0.011992848
224	0x3d05f883	0.032707702
225	0x3d7f2c40	0.06229806
226	0x3de0a643	0.10969212
227	0x3d31d9e2	0.04342068
228	0xbd2e6516	-0.04257687
229	0x3c80e2c0	0.015733123
230	0x3e0c00a4	0.1367212
231	0x3d2c9b22	0.042140134
232	0x3dbbf71b	0.09177991
233	0x3e11a144	0.14221674
234	0xbdd1bea4	-0.1024144
235	0x3d576725	0.0525886
236	0x3cf6b8f5	0.030117491
237	0xbbdc063b	-0.00671461
238	0xbcf2c63c	-0.029635541
239	0x3cf02e96	0.029319089
240	0xbd6a7a0a	-0.05724529
241	0x3c91e734	0.017810442
242	0xbc335151	-0.01094468
243	0x3d1926a4	0.037390366
244	0xbd5ea949	-0.05436066
245	0x3d9d04ce	0.07666932
246	0x3d9bd3cb	0.07608756
247	0x3b9867ee	0.0046510613
248	0x3d112798	0.03543815
249	0xbd1a74eb	-0.037709158
250	0x3d16a236	0.03677579
251	0x3d76bd82	0.060239322
252	0xbda4b861	-0.0804298
253	0xbd6340c6	-0.055481695
254	0x3da4adf4	0.080409914
255	0x3b02088f	0.0019841527

conv2.bias f4 [32]
0	0x3d0cf511	0.0344134
1	0x3c2726c4	0.010202114
2	0xbca3aa4f	-0.01997867
3	0x3d626aa6	0.05527749
4	0x3c89eb16	0.01683573
5	0x3cea6c42	0.028616074
6	0xbd8adf0c	-0.06780824
7	0x3d901fd9	0.070373245
8	0xbd6077bd	-0.05480169
9	0xbdafddd9	-0.08587236
10	0xbc790ccd	-0.015200806
11	0xbd6018d5	-0.05471118
12	0xbbfa02b4	-0.007629717
13	0xbd0c989a	-0.03432522
14	0x3c08ccb9	0.008349591
15	0xbd8b1f17	-0.06793039
16	0xbd3a4319	-0.045474146
17	0x3d95b66e	0.07310186
18	0x3c931b0e	0.017957237
19	0x3d9027b6	0.07038824
20	0xbcf2674a	-0.029590268
21	0xbc8d1189	-0.017220275
22	0xbcf9169a	-0.030406285
23	0x3cd2d632	0.025736902
24	0x3bfc0dda	0.007692081
25	0x3cdf04e5	0.027224014
26	0xbc6deaf7	-0.014521352
27	0x3d5fabb0	0.054607093
28	0x3d11770c	0.035513923
29	0xbdb0cf2f	-0.08633267
30	0xbcbb3cf8	-0.02285622
31	0x3db7467a	0.08948989

fc1.weight f4 [64, 1440]
0	0x3b044a08	0.0020185728
1	0x3b76daa0	0.0037666932
2	0x3c79f446	0.015255993
3	0x3c4fca22	0.01268247
4	0x3b9698cd	0.004595852
5	0xbce35c6f	-0.027754037
6	0xbcbc7348	-0.02300419
7	0x3b83e988	0.004025642
8	0x3c0563a3	0.008141431
9	0x3c8e1075	0.017341832
10	0xbc1e4206	-0.009659296
11	0xbd00c760	-0.03144014
12	0x3b9f825c	0.004867835
13	0x3bdc833b	0.006729511
14	0x3bdf7470	0.0068193004
15	0x3bcefcfc	0.006316779
16	0x3c92b950	0.01791063
17	0xbcf2813c	-0.02960264
18	0x3b4d7888	0.003135236
19	0xbcfaddae	-0.030623283
20	0xbb7b433b	-0.0038339633
21	0x3b306938	0.0026918184
22	0xbbcf166a	-0.0063198106
23	0xbc0c03da	-0.00854584
24	0xbcb79f4a	-0.022414822
25	0xbc2693ce	-0.010167075
26	0x3bc94ca3	0.006143169
27	0x3c8b1efb	0.016982546
28	0xbb941df6	-0.004520173
29	0xbceb6af7	-0.028737528
30	0x3c7c37e9	0.015394189
31	0xbb483e3e	-0.0030554677
32	0xbc591019	-0.013248467
33	0xbcaa5e9f	-0.020797072
34	0xbc1ad3b8	-0.009449892
35	0x3c94d032	0.018165682
36	0x3ba04578	0.004891094
37	0xbc3daa6a	-0.011576274
38	0xbcda351a	-0.026636649
39	0x3c33929e	0.010960249
40	0x3cc269ed	0.02373215
41	0x3b035f13	0.0020045682
42	0x3ca2e588	0.01988484
43	0xbb2735b6	-0.0025514192
44	0x3c51e33e	0.012810526
45	0xbcfe1040	-0.031013608
46	0xbc7ebd6e	-0.015548093
47	0x3a9d69f9	0.0012009732
48	0x3c9e6ba5	0.019338438
49	0xbb158979	-0.0022817536
50	0xbcc90d74	-0.024542548
51	0x3c887ed4	0.016662039
52	0xbc2df015	-0.010616322
53	0xbcfbb7cb	-0.030727288
54	0xbcb0cdaa	-0.021582443
55	0xbbc01a25	-0.0058624917
56	0x3c1488e5	0.009065841
57	0x3c3a8f8f	0.011386766
58	0x3c339870	0.010961637
59	0xbccdfeb8	-0.025145873
60	0xbc8bd3ee	-0.01706883
61	0x3c9245e6	0.017855596
62	0xbb8bfe26	-0.00427224
63	0x3c5e4cf1	0.013568149
64	0x3c86d0b0	0.016456932
65	0x3be34832	0.0069360966
66	0xbc48eaa0	-0.01226297
67	0x3bc340c7	0.00595865
68	0xbc73eef2	-0.014888512
69	0xbbbe2e97	-0.005803894
70	0xbcf296ed	-0.029612983
71	0xbcabfe51	-0.020995291
72	0xbc46e5d0	-0.0121397525
73	0xbc9f72cf	-0.019463925
74	0xbc1d6971	-0.009607659
75	0xbcea719f	-0.028618632
76	0xbcc93b7c	-0.024564497
77	0xbcffc5c2	-0.031222228
78	0x382ff94a	4.195542e-05
79	0xbb8504b7	-0.0040594
80	0xbca943f6	-0.02066229
81	0x3c4d7c6e	0.012541873
82	0x3c8382ee	0.016053643
83	0xbcc134a0	-0.023584664
84	0x3c65982b	0.01401333
85	0xbccde8b7	-0.025135381
86	0xbcb0e86b	-0.0215952
87	0xbbd1d1bf	-0.0064031775
88	0x3c74fa7e	0.0149523
89	0xbcd8a938	-0.026447877
90	0x3c7ffbeb	0.015624027
91	0xbc95ee95	-0.018302241
92	0xbc3a09e4	-0.011354897
93	0xbc5279a1	-0.012846381
94	0x3b581cde	0.003297619
95	0xbc9e7d1c	-0.019346766
96	0xbcb1157e	-0.021616694
97	0xbca73595	-0.020411292
98	0x3ccc35c1	0.024927976
99	0xbafddf40	-0.0019368902
100	0xbaa27300	-0.0012393892
101	0x3a943afe	0.0011309085
102	0xb9bf85c0	-0.0003653001
103	0xbc584c90	-0.013201848
104	0xbc98d964	-0.018658347
105	0xbcc4b282	-0.0240109
106	0xbca522b8	-0.020158157
107	0x3c5fc7a6	0.01365844
108	0xbc375528	-0.011189736
109	0x3cb94615	0.022616426
110	0xbcd10e8e	-0.025519636
111	0xbbb14b70	-0.005410604
112	0xbc3c4ff3	-0.011493671
113	0xbbe89070	-0.0070972964
114	0x3c24c296	0.0100561585
115	0xbca46153	-0.020065939
116	0xbc832d03	-0.016012674
117	0x3ca967a5	0.020679304
118	0x3c0028aa	0.007822195
119	0xbce2bf06	-0.027678978
120	0xb960de00	-0.00021445006
121	0xbca689c2	-0.02032936
122	0xbc7c8170	-0.01541172
123	0x3caec253	0.021332895
124	0xbba873cc	-0.005140757
125	0x3c7f7c72	0.015593635
126	0xbcc14cb4	-0.023596145
127	0xbc2557b0	-0.010091707
128	0x3c2fb6ca	0.010724733
129	0xbc775fd4	-0.015098531
130	0x3c9221df	0.017838417
131	0x3c23c932	0.009996699
132	0x3b4f8100	0.0031662583
133	0xbca0d90a	-0.019634742
134	0xbcd1b8e8	-0.025600865
135	0xbcc80891	-0.024418147
136	0xbcc618aa	-0.024181683
137	0x3c875293	0.016518867
138	0x3c6beec6	0.01440019
139	0x3ca8a2ab	0.020585379
140	0x3be06c75	0.0068488666
141	0x3be1f634	0.006895805
142	0x3c87063c	0.016482465
143	0xbcc44d80	-0.023962736
144	0xbcb11c97	-0.021620078
145	0x3af87eb1	0.0018958655
146	0x3be0284b	0.006840741
147	0xbcb8e52f	-0.02257022
148	0x3c1cf5b0	0.009580061
149	0xbc89b8aa	-0.016811687
150	0x3bb69823	0.0055723353
151	0x3ba8cefe	0.0051516285
152	0xbcac6afd	-0.02104711
153	0xbc10cf24	-0.008838449
154	0x3b8d66ac	0.004315218
155	0x3b96d614	0.004603157
156	0x3c7ff5ca	0.0156225655
157	0xba455f7a	-0.0007529181
158	0x3beb4ef1	0.0071810414
159	0x3c8695c7	0.016428841
160	0x3c364ed2	0.011127191
161	0xbccd39ea	-0.02505203
162	0x3c162e37	0.009166292
163	0x3c47082a	0.012147943
164	0x3bfa1664	0.0076320637
165	0xbcc6defb	-0.024276247
166	0x3c98fc72	0.018675063
167	0xbc7b539a	-0.015339756
168	0xbc9ce56c	-0.019152366
169	0xbc168f9e	-0.009189514
170	0xbc818750	-0.015811592
171	0x3c6695e6	0.0140738245
172	0x3be27b99	0.0069117066
173	0xbceba2d4	-0.028764166
174	0x3c5bd0ce	0.013416482
175	0x3cad0968	0.02112265
176	0x3c5c4590	0.013444319
177	0xbcb8b697	-0.022548003
178	0xbc8a9b68	-0.016919807
179	0xbcc49ab9	-0.023999559
180	0xbc335dc5	-0.010947649
181	0x3bf2869e	0.0074013015
182	0xbb2a43aa	-0.0025980272
183	0x3c144abc	0.009051021
184	0xbbf24c5c	-0.0073943567
185	0x3ca93fc1	0.020660283
186	0xbce8d23e	-0.028420564
187	0xbc1a4024	-0.009414706
188	0x3c714573	0.014726031
189	0xbcb3f354	-0.021966614
190	0xbcb0ac15	-0.02156643
191	0x3c782df3	0.015147674
192	0xbc282cf4	-0.010264624
193	0x3b5e8c32	0.0033958075
194	0x3c1443a3	0.009049329
195	0xbc8ebfdc	-0.01742547
196	0x3c2cd084	0.010547761
197	0xbc748d2a	-0.014926234
198	0xbcb60263	-0.022217935
199	0x3c7b844b	0.015351365
200	0x3c8ee238	0.017441854
201	0xbc78e347	-0.015190906
202	0xbca81121	-0.02051598
203	0xbc86d86c	-0.01646062
204	0x3c33e869	0.010980704
205	0x3bfa1c19	0.007632744
206	0xbc7823ca	-0.0151452515
207	0xbc32e8a4	-0.010919724
208	0xbc5d7510	-0.013516679
209	0x3bd54d72	0.0065094763
210	0xbca7681b	-0.020435384
211	0xbcba3e8a	-0.0227349
212	0x3c8744fe	0.01651239
213	0xb8e44b69	-0.000108859334
214	0xbcd80956	-0.02637164
215	0xbc5734b0	-0.01313512
216	0xb9dada36	-0.0004174278
217	0xbbdb3d33	-0.006690645
218	0xbcd5ed5a	-0.026114155
219	0x3ba8c4a1	0.005150393
220	0xbccf17e1	-0.025279941
221	0xbb915500	-0.0044351816
222	0x3896d0c0	7.19144e-05
223	0x3c234600	0.00996542
224	0xbc192915	-0.009348174
225	0xbccefa27	-0.025265766
226	0xbcc1ceeb	-0.023658236
227	0xbc9e994a	-0.019360203
228	0x3c8a7e85	0.016906032
229	0xbb5ba868	-0.0033517126
230	0x3c9c2de9	0.01906486
231	0xbbf94ccb	-0.0076080314
232	0x3ca911df	0.020638404
233	0x3c3cec9a	0.01153102
234	0x3b6ebb24	0.0036427462
235	0xbc3c7870	-0.011503324
236	0xbc57c502	-0.013169529
237	0xbbf9daad	-0.007624945
238	0xbcb0ef68	-0.021598533
239	0xb7603800	-1.3364479e-05
240	0xbcb59d09	-0.022169607
241	0xbc195a1c	-0.009359863
242	0xbcaaf16e	-0.020867076
243	0xbc252af8	-0.010081045
244	0x3a09e6a0	0.0005260501
245	0xbc5580fe	-0.013031242
246	0xbc7c48a4	-0.015398178
247	0xbc739a22	-0.014868291
248	0xbb98a710	-0.0046585873
249	0xbcd7fa9f	-0.026364623
250	0x3cc96089	0.024582164
251	0x3bc61aa4	0.0060456563
252	0x3c60fa0b	0.01373149
253	0x3c5e138e	0.013554467
254	0x3c8cf6cb	0.017207524
255	0x3ca1a78a	0.01973321

fc1.bias f4 [64]
0	0xbce1d119	-0.027565526
1	0x3b3627bb	0.0027794677
2	0x3c9490a7	0.018135382
3	0xbcb19f32	-0.021682356
4	0xbc1e6ce6	-0.009669518
5	0xbd013fcb	-0.03155498
6	0xbc8a03cf	-0.01684752
7	0x3c6f0e7a	0.014590854
8	0xbcb812a1	-0.02246982
9	0xbc8bf25c	-0.01708334
10	0xbca949dd	-0.020665104
11	0xbc9300f8	-0.017944798
12	0xbc6e0ee9	-0.014529922
13	0x3c54e8b9	0.0129949385
14	0x3aa15688	0.0012309114
15	0xbca40e86	-0.020026457
16	0xbc191644	-0.009343687
17	0xbab68518	-0.0013925163
18	0xbbf671f5	-0.007520909
19	0x3be09cbe	0.0068546226
20	0xbc7f14ff	-0.015568971
21	0xbc2d836c	-0.010590415
22	0xbc5a01f2	-0.013306128
23	0x3bec62c4	0.007213922
24	0xbbbd657b	-0.0057799197
25	0xbc44a54e	-0.012002302
26	0xba63c00c	-0.000868798
27	0xbcf605f5	-0.030032137
28	0xbcf113d4	-0.0294284
29	0xba452f9c	-0.0007522048
30	0x3b201ce5	0.0024431285
31	0x3b32ac0e	0.0027263197
32	0xbc018ee3	-0.007907602
33	0xbc4a16ab	-0.012334506
34	0xbc5fad20	-0.013652116
35	0x3b66ba80	0.0035206378
36	0xbc29f704	-0.0103738345
37	0xbc8e6ff7	-0.017387373
38	0xbcbcc661	-0.023043813
39	0xbc03a759	-0.008035504
40	0xbcb12e50	-0.021628529
41	0xbbdf0a5a	-0.006806654
42	0xbcea1e44	-0.028578885
43	0xbb88e3dc	-0.0041775536
44	0x396cab1f	0.00022570461
45	0xbb35fc76	-0.0027768887
46	0x3c85134c	0.016244553
47	0xbc6dbe13	-0.014510649
48	0xbc11e06f	-0.008903607
49	0x3c72d0da	0.014820302
50	0x3c01c98a	0.007921586
51	0x3bfee587	0.0077788266
52	0xbb747d59	-0.0037306158
53	0xbc286055	-0.010276874
54	0xbb5f09cd	-0.0034032941
55	0xbc3978d2	-0.01132031
56	0xbb20f74e	-0.0024561468
57	0xbc725cee	-0.014792664
58	0x3c90da2b	0.017682156
59	0x3b7c6ff0	0.0038518868
60	0xbc9b13eb	-0.018930396
61	0x3c73c137	0.014877609
62	0xbc0f7d0c	-0.008757841
63	0xbbf5931e	-0.0074943444

fc2.weight f4 [2, 64]
0	0x3b1f296b	0.0024286162
1	0xbd41bddd	-0.04730021
2	0xbdc48eb3	-0.0959753
3	0x3db3a748	0.08772141
4	0xbd76e5a0	-0.06027758
5	0x3da9a1a2	0.08282782
6	0xbd916341	-0.07099009
7	0x3df3cafe	0.11903952
8	0xbbe72e33	-0.007055068
9	0x3d8f5269	0.0699814
10	0xbda1f50c	-0.07908067
11	0xbdbef755	-0.093245186
12	0x3db1808e	0.08667098
13	0xbdceb1c6	-0.10092501
14	0xbaf96518	-0.0019027321
15	0xbdcfa148	-0.10138184
16	0xba8f0ea7	-0.0010914401
17	0xbd3ee06f	-0.046600755
18	0x3c9ffb3e	0.019528981
19	0x3d128324	0.035769597
20	0x3df24318	0.11829203
21	0xbd5ec312	-0.054385252
22	0x3e011e70	0.12609267
23	0xbd8135df	-0.06309103
24	0xbd454d04	-0.04816915
25	0x3dce529d	0.10074351
26	0xbdc1227b	-0.09430405
27	0xbcd5a5a7	-0.026079966
28	0xbc79208e	-0.015205516
29	0xbd964072	-0.07336511
30	0xbd4859fd	-0.048913945
31	0x3d50c1c2	0.05096603
32	0x3dec9e54	0.11553636
33	0x3e1ef588	0.1552335
34	0xbd00013d	-0.03125118
35	0x3bfd1d73	0.007724458
36	0xbdf4f1bd	-0.119601704
37	0xbd5ca471	-0.05386776
38	0x3cf3a829	0.029743271
39	0x3aadb5e6	0.0013253062
40	0x3d5acf7f	0.05342054
41	0x3d695a46	0.056970857
42	0xbdc51f8f	-0.0962516
43	0x3dc63785	0.09678558
44	0xbdc61320	-0.096716166
45	0x3de43a37	0.11143916
46	0x3dc49934	0.09599534
47	0x3d037dd7	0.032102432
48	0xbacd51eb	-0.0015664672
49	0x3cc62ccb	0.02419128
50	0xbdbe1848	-0.09281975
51	0x3c84fb79	0.016233193
52	0xbdc6fa0d	-0.09715662
53	0xbd452dcd	-0.048139382
54	0x3ddc3c1a	0.10753651
55	0xbdd43e10	-0.103634
56	0x3d198f31	0.037490074
57	0xbd8d8478	-0.06910032
58	0x3d93b79b	0.07212754
59	0xbdee54c3	-0.11637261
60	0xbdb9d559	-0.09073896
61	0x3d91e22e	0.071232185
62	0xbcfc9fd0	-0.030837923
63	0xbcc9b07b	-0.024620285
64	0xbd639724	-0.05556406
65	0x3df47434	0.119362265
66	0xbd3e3e47	-0.04644611
67	0xbd2162ae	-0.03940075
68	0xbce16f00	-0.02751875
69	0x3d808770	0.06275833
70	0x3d689e39	0.056791518
71	0xbd877310	-0.06613743
72	0xbdc13256	-0.09433429
73	0xbdf1994d	-0.11796818
74	0x3dcb1f64	0.09918097
75	0xbd5a1ff3	-0.053253125
76	0x3dc2c358	0.09509915
77	0xbd8eb14a	-0.06967409
78	0xbd53ca28	-0.051706463
79	0x3db90bf0	0.0903548
80	0xbd6f192b	-0.05837361
81	0x3e08bb25	0.1335264
82	0xbc38a9fa	-0.011270994
83	0x3d8488bb	0.06471392
84	0xbdbe5836	-0.09294169
85	0x3dff6431	0.12470282
86	0x3c5015cf	0.012700512
87	0x3de246a5	0.110486306
88	0xbdc8c5ed	-0.09803376
89	0x3d83aca4	0.06429413
90	0x3e00af50	0.12566876
91	0xbcb34e30	-0.021887869
92	0x3ca8471a	0.020541716
93	0x3abd63b9	0.0014449275
94	0x3d05245d	0.03250538
95	0x3ce5cc41	0.028051497
96	0x3c5b1549	0.013371774
97	0xbc422a4d	-0.011850906
98	0xbdcd1510	-0.10013783
99	0xbdaece76	-0.08535473
100	0x3e12b48d	0.14326687
101	0xbd182e57	-0.037153568
102	0x3d8ca132	0.06866683
103	0x3df0adb5	0.11751882
104	0xbd06a894	-0.032875612
105	0x3d35c75a	0.04437957
106	0x3da5e093	0.08099475
107	0x3d893d15	0.067011036
108	0xbd438b8b	-0.0477405
109	0xbd2845a4	-0.04108204
110	0x3da0fa4e	0.07860242
111	0xbdc2cb5a	-0.095114425
112	0x3c9bf786	0.019038927
113	0x3d5cfc8e	0.053951792
114	0xbd24956a	-0.040181555
115	0x3cd12609	0.025530832
116	0xbd12c1e6	-0.035829447
117	0xbd2dd21f	-0.042436715
118	0xbc8943a1	-0.01675588
119	0x3d1544f0	0.036442697
120	0x3c589460	0.013218969
121	0xbdb2fb3c	-0.087393254
122	0x3c1eb54f	0.009686782
123	0xbcc5dc1e	-0.024152812
124	0xbd6deeec	-0.05808918
125	0xbdec2530	-0.115305305
126	0xbdb01490	-0.08597672
127	0x3b22baae	0.0024830508

fc2.bias f4 [2]
0	0xbdd814b5	-0.105508246
1	0xbdb5e05b	-0.08880683
