wakeword_model.pth (torch, 391892 bytes, 8 tensors)

conv1.weight f4 [16, 1, 3, 3]
00000000: cb6e 833d 42f0 993e 99b3 7ebd 5ce6 14bd
00000010: 1254 46be 4fc0 72be 3b41 1e3e e752 153e
00000020: 274d 073d 4788 543e 012c d6bd e3ad 62be
00000030: 0331 c73d 0a48 93be 53a1 643e dcb3 b23d
00000040: 71a8 86be 4c85 aabe 92b5 ab3e 300c 70be
00000050: f20e 82bd aab3 713e a460 94be 45f1 1d3d
00000060: dd0c ea3c bbda b03d 4164 713b c0d9 2b3e
00000070: 2b4b 70be 5a63 2ebe f7c1 4e3e b9ee 96bd
00000080: d1f0 423e e90c c3bd 5bd8 ddbd 9618 babd
00000090: db89 18be 42a0 943e 491f 00be 1633 8e3e
000000a0: 83e5 a2bd 1f28 463e 7b22 263c 508f a93e
000000b0: 649f 773e 1f7a aa3d 26e8 09be 901c 8a3e
000000c0: bbca b23e 7507 853e 11dd 5fbe b775 163d
000000d0: 500d 8abe c744 6ebe 41f6 5cbe 9b51 ec3b
000000e0: a79f 8bbc 05d2 033e c714 6f3e 2b57 ac3e
000000f0: c2dd 0bbe 20aa 983e 5c98 263d 65b3 c33d
00000100: 3185 60be 5068 9e3c 20f6 0d3e ccd9 8fbe
00000110: 23aa f13d 8e69 15be 5888 1f3e 7a2d babd
00000120: 75d4 403e 3730 b23e 2906 e63d bd21 933e
00000130: 764b 1b3e e839 783e f877 6b3e ea73 16be
00000140: a345 0fbe 5e67 a03e 56e7 c2be 3475 b1bd
00000150: 1d4c 863c 55e9 833e 7a26 96be 9e7f cbbc
00000160: 3c1b 363e 037b c8be 7595 25be 4e9e 63bd
00000170: b45f 3d3d e7c4 bebb 6885 92bc edeb 14be
00000180: 1186 3f3e 4d75 9cbe 4b43 2bbe ecd7 bbbe
00000190: e2a8 90be 268c 95be 1b9a 5cbe eaac 05be
000001a0: a122 09be 8b19 193d d3a6 93be 25c2 9e3d
000001b0: 0005 0cbe b34b 1abe 81af c43d b00e a93e
000001c0: 7900 67be b4ce ddbd e640 92be 97cd 003e
000001d0: e5cd 61be 1fc1 963e 8a62 4cbe 9f93 7d3d
000001e0: f62a f4bd 0679 92be 3e3b c7be 6c22 b13e
000001f0: a2b0 a83d 1cfc afbe 1f55 84bd 274d a7be
00000200: 157f 943d 89ff 54bd 7229 90be 8135 483d
00000210: 53b7 9c3d fa44 c03c 663f c2be 1d6a 70be
00000220: d900 97be df8c a83c 545a 1f3e e8db 9bbe
00000230: 7ce2 8b3e 6227 2c3e 5c40 f03d d235 91be
0.064176165 0.30066115 -0.062182996 -0.0363525 -0.19368008 -0.23706172 0.15454571 0.14582406
0.033032563 0.2075511 -0.10457612 -0.22136645 0.09726145 -0.287659 0.22327165 0.08725712
-0.26300386 -0.33304822 0.33536965 -0.23442149 -0.06350507 0.23603693 -0.2897998 0.03856017
0.028570587 0.086354695 0.0036833438 0.16782284 -0.23466174 -0.17030087 0.20191179 -0.073697515
0.19037177 -0.09523947 -0.10832282 -0.09086721 -0.14896338 0.29028517 -0.12511934 0.2777335
-0.07953932 0.19351242 0.010140057 0.3311715 0.24181896 0.08324074 -0.13467464 0.26974916
0.34920296 0.25982252 -0.21861674 0.036733355 -0.26963282 -0.23268424 -0.21578313 0.0072118766
-0.017043902 0.12873085 0.2334777 0.33660254 -0.13658813 0.29817295 0.040672645 0.09555701
-0.21925808 0.01933685 0.1386342 -0.28095853 0.11800029 -0.14591047 0.15579355 -0.09090705
0.18831046 0.3480241 0.11231644 0.28736678 0.15165505 0.2424084 0.22994983 -0.14692655
-0.13991408 0.31328863 -0.3806712 -0.08664933 0.016393716 0.25763956 -0.2932623 -0.024841126
0.17783827 -0.3915635 -0.16170295 -0.055570893 0.046233848 -0.0058218124 -0.017885879 -0.14543124
0.18703486 -0.30558243 -0.16724889 -0.36688173 -0.28253847 -0.29208487 -0.21543162 -0.13054243
-0.13392116 0.037377875 -0.28838214 0.07751874 -0.13673782 -0.1506794 0.09603787 0.33019018
-0.22558774 -0.10830441 -0.2856514 0.12578426 -0.22051199 0.29444215 -0.19959465 0.06190836
-0.11922257 -0.2860796 -0.38912386 0.34596574 0.08236815 -0.34372032 -0.06461548 -0.3267605
0.072508015 -0.05200151 -0.2815662 0.04887915 0.07652154 0.02347039 -0.37938994 -0.23477979
-0.29492834 0.020574985 0.15561801 -0.30441213 0.2732123 0.16811898 0.117310256 -0.28361374

conv1.bias f4 [16]
00000000: d7dd cfbd 546a f83d 64bb 103e c217 4f3d
00000010: b3e4 683e bc3d 12be 4d17 383d 619f 55be
00000020: e74d 53be b639 8f3e 0e9b 443e bda1 1dbe
00000030: a05a 95be f5ef 663e b7b6 573e 6f50 8b3d
-0.101497345 0.121296555 0.14133984 0.050559767 0.22743492 -0.14281362 0.044944096 -0.2086158
-0.20635186 0.27973717 0.19199774 -0.1539373 -0.29170704 0.22552474 0.21065794 0.06802451

conv2.weight f4 [32, 16, 3, 3]
00000000: 0381 ac3d 5a69 6d3c 8640 e7bd 3dd2 633d
00000010: d891 903c cc53 a3bc 4431 a83c d523 683d
00000020: ac98 333d bbd7 43bd bd13 90bd 4a66 31bc
00000030: 9047 87bd f837 fa3b c429 b9bd fa88 9bbd
00000040: 7cb7 ed3c 3f31 8ebd 011a 833d ad4e 31bd
00000050: e97a 7a3d ef44 b23d 89d9 93bd c77c 2d3d
00000060: 6b86 9c3d aabf 5e3d 7bd1 43bd 8a7d 113b
00000070: 8c56 8a3b d966 c9bd 6fc3 843d b01c 253c
00000080: 42b1 daba 596d f33c fb5d 7fbd d4fc b0bd
00000090: c19d 533d a332 133d 6bba 8f3d b159 0cbd
000000a0: ba17 eb3c ef4b a33d 9251 dd3c 9e90 3f3d
000000b0: 1022 cf3c 8e20 0fbd 6444 6cbd 93e9 e4bc
000000c0: 0929 903d e04b 8e3d 61a0 f93d 627d 203d
000000d0: b4e1 903c 0645 5f3d e86b 3b3d ef93 923d
000000e0: 2d99 1bbd 3f46 9dbc a53e e0bc c55c a13c
000000f0: 2f07 7a3d bc57 993c 437f 1f3d 8280 c639
00000100: f570 963d ba55 cf3c 7da8 f33b 141e 4fbb
00000110: f46e b13c b9fd d5bc e4b1 bc3c ea99 413d
00000120: 5793 a23d 8868 b33d 0ae3 363d 3eff 2abd
00000130: e6a8 2b3d bd49 d03d 29b4 753d abe9 80bd
00000140: 5471 ae3d 77f2 cb3b e5c3 d0bd d245 4138
00000150: 0695 ad3d 93dc 403d 0d39 9b3c 0591 1c3c
00000160: 4b76 cbbc 6e17 533c 1ef7 45bd d925 d1bd
00000170: 9de5 97bd b0d7 8dbd 386f 70bc a229 30bc
00000180: ee66 a9bd ff15 70bd 25da 9a3c 81ea e2bd
00000190: e89a b93d d5b4 d3bd 8ebe 09bd 30a0 113c
000001a0: baa9 dcbd 030b dbbc 8c2a 9b3c 48ad 57bc
000001b0: 66df 5cb9 57f4 8dbd 5bf4 7bbd 29e3 d1bd
000001c0: 31a8 8abd d606 2e3d 3b0f 98bb 122e 05bc
000001d0: 5af0 793d edb1 d63c 82ab 01bc 9f0d 41bd
000001e0: afb2 bf3d 773c d3bd eac5 afbd fb87 dabc
000001f0: d134 d9bd 92e1 70bd 87d1 e03c c0a4 cebd
00000200: 2975 59bd ff6c 3d3d 907b 04be 42e1 04be
00000210: 771e c5bc 0a9a 48bd cb12 eebd 576b 2a3d
00000220: b77b 253d 7f70 443d 2fff 8dbc 9477 a2bd
00000230: 283e 8dbd 4d2e 463b ec1b 7fbd 1f3d 77bc
00000240: 22c1 bc3d 325d 4fbc a011 5fbc c86a a33c
00000250: 6367 00bd b347 f03c 2be6 153e c77d 40bd
00000260: 80c4 a83c 3c9d babb 0ea4 e6bc 9f1f c33c
00000270: 5b3f 093c f3be a6bd d988 373d 14ed 40bd
00000280: cdef d53c 386a 28bd 8ce8 573d 430a 6fbc
00000290: d835 a3bc 1da4 6d3d e498 c9bd 93c9 e63c
000002a0: 1d88 62bd 9855 f63c 2609 00bc 37ce 7b3d
000002b0: 6df5 893c c69a 913d a8ff 2c3d 285c 88bd
000002c0: f56c 25bd 7613 0ebd 1c6b 313d 16e1 98bd
000002d0: d450 ccbb 87ad 103d 437b b7bd 08a2 efbc
000002e0: 95b6 b8bd d7d9 18bd 53d4 1c3c a013 933c
000002f0: b45e b6bd 0e4f cc3d 3a31 6abd aea1 98bc
00000300: 3681 e83b f998 903d ad5f ecbb 6329 a33b
00000310: 3fba ac3d c8ec d8bd 44c6 a8bc ecab 3e3d
00000320: 37a0 ddbd 1bea cd3c 5682 5b3c 70e3 0abd
00000330: 1617 f33b 928b 4e3d c14d 90bc 51e7 71bc
00000340: 315e c13c 64dc b43c c222 a6bc b351 81bd
00000350: 0ddc 983c 7f64 8cbd 7dd5 fdbc f394 553c
00000360: fda9 a6bc 4a69 cfbd ff8c b13b 998c 963d
00000370: b5a2 7a3d 1a8a 5bbd a730 743d 0bc1 9bbd
00000380: f4c8 24bc 5b09 4ebd 078d c0bd 9fa8 0a3a
00000390: 51af 173d b79f 64bc 6b8a 4b3d 37d0 013e
000003a0: a489 bebd a466 69bb 963b ed3c 4a86 1e3d
000003b0: 3bff 7cbb 46f7 14ba c3d7 64bd b23a 72bd
000003c0: 6e6e 573d 7817 9cbc aa6e 3cbd 2e46 403d
000003d0: 266c 91bd 5039 3fbd 887b 8c3d b958 22bc
000003e0: f9ab 063e bb57 d1bd 2758 bebc b90b a33d
000003f0: ba80 c1bc d8e2 0ebd 0c84 c93c 8588 7a3d
0.084230445 0.01449045 -0.11291604 0.05562042 0.017647669 -0.019937418 0.020531304 0.056674797
0.04384677 -0.04781316 -0.07035015 -0.01082761 -0.06605446 0.0076360665 -0.09041169 -0.075944856
0.029018156 -0.06942987 0.06401444 -0.04328792 0.061152373 0.08704554 -0.07219226 0.042355325
0.07642826 0.054382004 -0.047807198 0.0022200071 0.004221743 -0.0983407 0.064825885 0.01007764
-0.0016684907 0.029715227 -0.062345486 -0.08641973 0.051664118 0.035936963 0.07017978 -0.034265224
0.028697837 0.079734676 0.027016435 0.046768777 0.025284797 -0.034943156 -0.05768241 -0.027943408
0.07039077 0.06948066 0.12188793 0.039182074 0.017685749 0.054509185 0.045757204 0.07157122
-0.037987877 -0.019198535 -0.027373621 0.019697556 0.061042007 0.018718593 0.038939726 0.0003786125
0.073457636 0.025309432 0.007435857 -0.0031603621 0.021659352 -0.026121961 0.023034044 0.047265925
0.07938259 0.08760172 0.044650115 -0.041747324 0.04190912 0.101703145 0.059986267 -0.06294569
0.085177094 0.0062239724 -0.10193614 4.607981e-05 0.084756896 0.047085356 0.018948102 0.00955606
-0.02483668 0.012884004 -0.048331372 -0.10212297 -0.07416842 -0.06925905 -0.014674954 -0.010752114
-0.082715854 -0.058614727 0.018902848 -0.11079884 0.09062749 -0.10337225 -0.033628993 0.008888289
-0.1077456 -0.02673865 0.018941186 -0.013163872 -0.00021064057 -0.0693137 -0.061512332 -0.102484055
-0.06770361 0.042486988 -0.0046404875 -0.00812866 0.061020233 0.026207888 -0.007914426 -0.04713213
0.09360253 -0.10314267 -0.08582671 -0.026676169 -0.10605777 -0.05880887 0.02744366 -0.10090017
-0.05309025 0.046246525 -0.1293776 -0.12976554 -0.024062378 -0.048975028 -0.11624678 0.041606274
0.040401187 0.047958847 -0.017333595 -0.07932964 -0.06896621 0.003024 -0.062282488 -0.015090256
0.09216525 -0.012656497 -0.013615042 0.019948378 -0.031348597 0.029331064 0.14638583 -0.04699495
0.020601511 -0.0056950133 -0.0281544 0.023818789 0.0083769215 -0.081418894 0.044808242 -0.047101095
0.026115322 -0.041116923 0.05271201 -0.014589849 -0.019923136 0.05801784 -0.09843615 0.02817229
-0.05530559 0.030070111 -0.007814681 0.06147596 0.016840661 0.07109599 0.042236 -0.066582024
-0.040387113 -0.03468653 0.043315038 -0.07464807 -0.0062352214 0.03532174 -0.08959057 -0.029252067
-0.090192 -0.037317123 0.009572106 0.017953694 -0.08904782 0.09976016 -0.057175852 -0.018631782
0.0070954813 0.07060427 -0.007213554 0.004979299 0.08433961 -0.105920374 -0.020602353 0.046550676
-0.10821574 0.025136044 0.013397774 -0.033908308 0.0074185235 0.050426073 -0.017615201 -0.014764623
0.023604484 0.022077747 -0.020280246 -0.06314411 0.018659616 -0.068551056 -0.030985588 0.013036001
-0.020344729 -0.10127504 0.0054184194 0.073510356 0.061190326 -0.0535985 0.05961671 -0.076051794
-0.010057677 -0.05030189 -0.09401899 0.0005289409 0.03703243 -0.013954095 0.049692553 0.12677084
-0.093035966 -0.0035614157 0.028959077 0.038702287 -0.0038604278 -0.00056825986 -0.05586983 -0.059138007
0.05259555 -0.01905416 -0.046003975 0.04694193 -0.07100706 -0.046685517 0.06859499 -0.009908848
0.1315154 -0.102218114 -0.023235394 0.0796122 -0.023620952 -0.034884304 0.024599098 0.06116535

conv2.bias f4 [32]
00000000: 4c2f 263c f59f 293d e977 063d aca3 083c
00000010: 8529 39bd 1e21 473d 6a46 563d 087f 44bd
00000020: 2e59 953c 26f4 18bc f731 a1bd 4e3c 77bd
00000030: 1e02 ba3d 2cbc 70bc 9b04 2dbd 5818 e0bc
00000040: 0222 61bc 6a9f f5bc 0852 013d 31fa 36bd
00000050: 8045 8bbd dee7 273c 3871 853d 95d8 4bbd
00000060: 7299 c0bb f79e 3c3d 9ebc bd3d 6822 85bd
00000070: df4a 433c e5b8 823c 3874 ed3c 4ca5 9c3d
0.010143112 0.041412313 0.0328292 0.008339804 -0.04520561 0.048615567 0.052313246 -0.04797271
0.018231 -0.009335553 -0.07870858 -0.060360245 0.09082435 -0.014693301 -0.04224072 -0.027355358
-0.013741018 -0.029983241 0.03157237 -0.044672195 -0.068003654 0.010248153 0.065157354 -0.049767096
-0.005877667 0.04605004 0.092644915 -0.06500703 0.011919706 0.015957305 0.028986081 0.076487154

fc1.weight f4 [64, 1440]
00000000: a6a9 cf3a f8af 1fbc 09cc c33c a83d 54bb
00000010: 85d9 dbbc 07a3 083d d327 403c 9a7e 253c
00000020: 501a b13d 852c 903c bbf7 513c 38c2 bf3c
00000030: 9f59 8f3c f063 68bd 7576 a6bc d335 9dbc
00000040: 828f a8bc a35d f0bc 369b 53bb 393c 11bc
00000050: c82d 6bbc 284b 16ba dcda 14bd 1de2 a1bb
00000060: 70b8 6dbc fbeb 83bd 5d7f 123d 0116 c53c
00000070: fc01 b2bc fcdf 0f3d b746 173c 2b37 3ebc
00000080: 9f38 4d3d b431 f43c b5f3 9339 c5cd 003d
00000090: 84d7 7e3c b4d5 193d 7612 993d 79cc 6a3c
000000a0: 525d 613c 24c1 143d 7207 a93a 28fc 073c
000000b0: 8a53 843d eec7 e73c b72f 84bc f2ed 7a3a
000000c0: 0da6 6e3c 2fba f7bc 5147 f3bc 56ee 253b
000000d0: dcfb bcbc cfe9 c5bc 5027 a23d 2e0f 30bd
000000e0: 13b4 dabc c9fc 203d a639 cfbc 03a6 3f3c
000000f0: e6b5 bfbc 7966 963b 833a 233d af75 dcbc
00000100: b877 bf3c f985 003d f38c 49bb 563b c73c
00000110: b065 d3b9 1c19 403c 746d 9abc e54f 743c
00000120: c278 78bc cdee 003d b0e9 7c3c 6069 bd3a
00000130: 2e3f 2cbc 72cd 95bc 979a a93c 0114 50bc
00000140: 822f 19bb 717f fcbb d593 4f3c cadb b93c
00000150: 8cc2 113c 3452 a63b 8269 95bc 69d4 99bc
00000160: b025 f0bb 77a4 893c d1a2 453d f79b 04bd
00000170: 5e34 773b 8df7 573d 1f6b febc 67a5 ce3c
00000180: d253 9c3d 3bce 8c3c d0a4 403c a7ba ac3d
00000190: bd0f fabc 4c64 533d e6ab 4bbb b062 59bd
000001a0: 6587 113c c077 1dbc a95e 43bc a1e1 80bc
000001b0: e01f c43a abd2 463c 2a8b 15bd bbad e23a
000001c0: 7afe 57bd 63ce b03c c75e 74bc bc3b 17bd
000001d0: f15d 70bc 259e b23c 723d e8bb 8c60 253a
000001e0: 08c4 5e3c 1a19 b13c 6afb 773c c220 593c
000001f0: 44e9 103d 1946 55bc 8c1b 9ebc 872b a1bc
00000200: 746b 17bc d162 87bb 2f7a ed39 1a2c 36bb
00000210: 4288 9f3c e6df 30bd 5be2 593c 7298 a63c
00000220: 46d1 8dbb 0562 a8ba 8258 393d 0849 b03c
00000230: 206f 463c 099c 453d 5f9a 733c 4bf2 6cbc
00000240: 6c03 443d 49ce 293c 5c3f 483b 2036 1ebb
00000250: 4443 8b3c a734 573c ef41 4ebc 7083 6dbc
00000260: 077a 823c 776c bebc d979 033c 2d1e c8bb
00000270: 58b7 4bbb 301b 0dbc 95ea 79bc 28ba a63c
00000280: 15e9 753c 7ff2 d3bc de59 e63c 9ac6 a63c
00000290: 012f e73b c428 513c 3a40 4abc d027 7d3c
000002a0: 595d cc3b 7e3b deb9 a16d d4bc 73ca 85bb
000002b0: 8045 35bb d877 f8bb 2f57 85bb 37ad b4bc
000002c0: fb68 893c cff7 60bc 3f81 713b d84f 753b
000002d0: 8e90 403d b110 aebc 26e2 18bd 3fba 233d
000002e0: 449e c3bc caa5 96bd b28e 723d f75b 90bd
000002f0: 2730 09bd f78c 933d f7ee 81bc a55e 373c
00000300: f0b2 2e3d 1ac8 69bc 3f35 5d3d 55b5 04bd
00000310: 363a a3ba 7f8f 353d 7b16 d8bc 7fc2 833d
00000320: a86b 923c 2fd3 c23c 7a6f ad3c 9d5a 173c
00000330: aa59 57bc 7e5c 813a 8e48 81bc f724 023d
00000340: 51a4 51bb e5ab 3ebd 519c 4d3c 3d92 6c3c
00000350: 4222 fdbc 9724 c2bb 545b 2a3d 45fb cdbc
00000360: d9e2 643c 227a d03c 1ff1 fabc db80 9bbb
00000370: e898 ddba 13a5 94bd 5f33 c63c c391 36bb
00000380: 37db 64bd eb25 9cbc a1c0 e93b 0e38 8fbc
00000390: 9e83 d038 29b6 233c 19a6 cb3c 63ba b63c
000003a0: 3b6c f43c d84a e237 3d35 083c 11e1 993c
000003b0: 0bca 72bc 58e3 9fbc 2f75 23bc 2d9c 07bd
000003c0: 7fe5 9d39 5d6a 483c f88f 1abd 52a7 cabc
000003d0: 9ab6 893c 1f51 183a 5641 ef3b e4f7 863d
000003e0: 6bbe 913b 99b4 01bb 45ba 88ba a63d 8abc
000003f0: 192e 533c a2bb 073b cb27 d9bb dcc9 aabc
0.0015843406 -0.009746544 0.023901002 -0.0032385383 -0.02683712 0.0333586 0.011728245 0.010100985
0.08647597 0.017599354 0.012815411 0.02340804 0.01749879 -0.056735933 -0.020320157 -0.019190704
-0.020576242 -0.029341524 -0.0032288558 -0.008864456 -0.014354177 -0.0005733245 -0.036341533 -0.004940285
-0.014509305 -0.06441494 0.035765994 0.024058344 -0.021729462 0.035125718 0.009233168 -0.011609833
0.050102826 0.029808857 0.000282196 0.031446237 0.015554313 0.03755732 0.07474224 0.014330977
0.013755159 0.036317006 0.0012895896 0.008299865 0.06461246 0.028293576 -0.016136033 0.00095722
0.014565957 -0.030240146 -0.029697092 0.0025319061 -0.023069315 -0.02415934 0.079176545 -0.042983226
-0.026697194 0.039303575 -0.025296044 0.011697295 -0.023402166 0.0045898524 0.039850723 -0.026911585
0.023372516 0.031377766 -0.0030754178 0.024320286 -0.0004032082 0.011724737 -0.01885102 0.014911626
-0.01516551 0.03147774 0.015436575 0.001445096 -0.01051311 -0.01828644 0.020703597 -0.012700082
-0.0023374264 -0.007705622 0.012669523 0.022687811 0.008896481 0.0050757173 -0.018238787 -0.018778043
-0.0073287115 0.016802056 0.048250977 -0.032375302 0.0037720422 0.052726317 -0.031056939 0.025225354
0.07633175 0.017188182 0.011758044 0.084340386 -0.030525083 0.051609322 -0.0031077801 -0.05307263
0.008882378 -0.00961107 -0.011924424 -0.015732588 0.0014963113 0.012135188 -0.03650967 0.0017294207
-0.052732922 0.021582788 -0.014915175 -0.0369222 -0.014670835 0.021803925 -0.007087403 0.0006308637
0.013596542 0.021618415 0.015135625 0.013252439 0.03537871 -0.013017201 -0.019300245 -0.019674076
-0.009241927 -0.004131653 0.00045295196 -0.0027797283 0.019474152 -0.043182276 0.013298596 0.020336363
-0.004327926 -0.0012846595 0.045250423 0.021519199 0.012111455 0.04824451 0.014868348 -0.014462064
0.047854826 0.010364124 0.0030555343 -0.0024141148 0.016999848 0.013135112 -0.012588962 -0.014496669
0.015927328 -0.02324508 0.008024656 -0.006107113 -0.0031084623 -0.008612439 -0.015253683 0.020352438
0.015009184 -0.025872467 0.028119024 0.020358372 0.007055164 0.012766067 -0.012344414 0.015451387
0.006236714 -0.00042387465 -0.025931181 -0.0040829717 -0.0027659833 -0.007582646 -0.004069231 -0.022055252
0.016773691 -0.013730957 0.0036850718 0.0037431624 0.047012858 -0.021248193 -0.037325047 0.03997254
-0.023879178 -0.073558405 0.059218116 -0.07048791 -0.033493187 0.07204621 -0.015861018 0.011191999
0.042651117 -0.014268899 0.054005858 -0.032399494 -0.0012453261 0.0443263 -0.026377907 0.064335816
0.0178736 0.02378234 0.02117132 0.0092379125 -0.013143936 0.0009869484 -0.015781667 0.031773534
-0.003198881 -0.04655065 0.012549476 0.014439163 -0.030900124 -0.005924772 0.041591004 -0.025144229
0.0139701 0.025448862 -0.030632554 -0.0047455854 -0.0016906532 -0.07258048 0.024194418 -0.0027857877
-0.055873122 -0.01906105 0.007133559 -0.017482784 9.9427285e-05 0.009992161 0.024859475 0.022305673
0.029836765 2.6976151e-05 0.008313474 0.018784078 -0.014818679 -0.019517586 -0.009976669 -0.033107925
0.0003011636 0.01223239 -0.037734956 -0.024737988 0.016810704 0.0005810428 0.00730149 0.0659025
0.0044477484 -0.0019791482 -0.0010431489 -0.0168751 0.0128894085 0.0020711203 -0.006627058 -0.020848207

fc1.bias f4 [64]
00000000: afd9 f33c dd6b 19bc 67d2 e5ba b33c c63b
00000010: b218 a6bb dec3 d7bc 04ec 8bbc c5c6 bcbc
00000020: 6b0f 02bd 8bc7 e4bc 4050 3abc ec92 6dbc
00000030: 4f5e 913c 5d99 923b 9fa3 c93c a48f 663c
00000040: f52d 5e3c a44f 833c 2992 efbc be1f 76bc
00000050: 5e25 403c b47a cebb 1347 50bc d10e 9bbc
00000060: f5ca 9f3b b13f 32bc f012 4c3b af9e 63bc
00000070: 98a4 5cbb ebaf dfbc 3c75 9ebc a4e7 d63c
00000080: 417c 673c a129 85bc 943c 763c 6547 51b9
00000090: 2a76 743c e544 9cbb e057 40bc 643a 83bc
000000a0: a44c 823c 5d5a 04bd 6d5d 61bc 5a46 ac3b
000000b0: 42d2 c13b 1de2 f0bc 5300 44bc 4b45 293c
000000c0: efaf c93b 5bcb e0bb 985a 4dbc 0d47 78bc
000000d0: c132 0b3c d001 93bc a4a3 44bc fc79 d5bc
000000e0: 4231 b73c 8d49 d53c 66d1 aabc 9299 413c
000000f0: aac2 863c bdde d9bc 5053 6dbc 1d82 713c
0.029766886 -0.0093640955 -0.0017534018 0.0060497164 -0.005068862 -0.026338514 -0.017080314 -0.023044
-0.031752985 -0.02792718 -0.011371672 -0.014500361 0.017745165 0.0044738487 0.024614153 0.0140723325
0.013560762 0.016029187 -0.0292445 -0.015022216 0.011727659 -0.0063012484 -0.012712258 -0.018927963
0.0048764893 -0.010879443 0.0031139217 -0.013892814 -0.0033667441 -0.027305564 -0.019343011 0.026233502
0.0141287455 -0.016255202 0.015029091 -0.0001995839 0.014920751 -0.004768955 -0.011739701 -0.016019054
0.015905686 -0.03231274 -0.013755185 0.00525741 0.0059149573 -0.029404694 -0.011962968 0.010331462
0.006155006 -0.0068601794 -0.012533806 -0.015153659 0.008495987 -0.0179452 -0.012001906 -0.026059143
0.022362355 0.026036048 -0.020851802 0.011816399 0.016450245 -0.026595468 -0.014485195 0.014740494

fc2.weight f4 [2, 64]
00000000: f946 e03c ef09 cebc 53bb 523d e4cd eebd
00000010: 2102 a33a b881 463d 5515 a03d c0fb aa3d
00000020: 6834 e4bd b5b5 33bd b62d fabb 6dac 573d
00000030: 642f d43d d553 e4bc 807b 20bc a48f 023d
00000040: c875 2abd c939 283e ceb2 a03b 0562 84bd
00000050: 1cd2 03be c8cc 7d3c d391 e8bd 440e 4bbd
00000060: bf8e f33c a75f a4bd 7407 11bd 52f1 dfbb
00000070: 231c e33d 8fb8 423d 851a d53d bc9e a13d
00000080: 2a62 eabd 2875 773d a05a 42bd a204 95bd
00000090: 775e fc3d e135 093c f346 fb3c 899b c9bb
000000a0: 9830 0bbd 9814 b8bc 3bc8 acbd c64a e8bd
000000b0: c60f da3d 1c1a 393d 4600 c2bc 693a b2bd
000000c0: 2d74 c83d 674f 4ebd ac21 92bd 7dbd debd
000000d0: 944b e5bd 3e36 0f3d f48b d3ba 81f5 c83b
000000e0: bb07 c4bc 6a9e 28bc 0239 8ebd ef9c 933d
000000f0: ec8b 073e cdbc db3d cdc7 d23d e250 72bd
00000100: 476c 0b3e bccb 7dbd 4753 b8bc 4584 183d
00000110: 0733 c03d 8e25 8bbd c917 18bd 2ccb 00bd
00000120: d8c3 cd3d 4f43 1dbd 849a 82bd c1cc b7bd
00000130: 967e cd3d 26e7 593d 24df 7b3d afce b9bc
00000140: 9558 0c3d b537 07be 3b2c 9e3c d9fa a9bd
00000150: 910e 8a3d 2391 52bd 4ed8 49bd c988 a1bd
00000160: b228 86bc ae90 5cbd 0822 66bd bfdc 813c
00000170: 72fd 78bd 9098 d6bc 2380 a33d 0f4f 57bd
00000180: 5686 523d 2370 a83c bc41 e83d 9a6d a1bd
00000190: da95 8dbd 31e9 2c3c 209d 0bbe 6e20 1d3d
000001a0: 6cb3 de3d c8f4 3d3b b453 afbc cc38 013e
000001b0: 40aa babd aa20 a23d 15d7 e93c d242 383d
000001c0: 263e 813c 05c7 edbd 6c23 de3d 1de9 563d
000001d0: 22ba e83d fa78 83bc 4fef 07bd 0b88 27bd
000001e0: a693 2d3d af34 fb3d d862 ccbd a808 06be
000001f0: 4da7 cebd a020 07bd 2ee1 b53b ad90 13bc
0.027377592 -0.025151221 0.051448178 -0.11660364 0.0012436548 0.048463553 0.07816569 0.08348799
-0.11142808 -0.04387446 -0.0076348437 0.052654672 0.103606015 -0.027872005 -0.00979507 0.031875268
-0.04161623 0.16428293 0.0049041277 -0.06464008 -0.12873119 0.015490718 -0.11355939 -0.04957415
0.029731153 -0.08026057 -0.0354075 -0.0068341875 0.11089351 0.04753929 0.10405449 0.07891604
-0.114445046 0.060414463 -0.047449708 -0.07276274 0.12322705 0.008374662 0.03067348 -0.0061525744
-0.03398189 -0.022470757 -0.084366284 -0.11342387 0.1064754 0.045190915 -0.023681771 -0.08702547
0.09787784 -0.050368693 -0.07135329 -0.10875986 -0.11196056 0.03496384 -0.0016139732 0.006132782
-0.023929467 -0.010291675 -0.06944467 0.07207667 0.1323697 0.1072937 0.10292015 -0.059159167
0.13615523 -0.061961874 -0.022500647 0.037235517 0.09384733 -0.06794272 -0.03713206 -0.03144376
0.1004712 -0.03839427 -0.06377128 -0.089746006 0.1003391 0.053198956 0.0614921 -0.022681562
0.034264166 -0.13204844 0.0193082 -0.082997985 0.067410596 -0.051407944 -0.04927855 -0.07887418
-0.016376827 -0.053848915 -0.0561848 0.01585233 -0.06078858 -0.026195794 0.079834245 -0.05256563
0.051397644 0.020561283 0.11340663 -0.07882233 -0.069133475 0.010553644 -0.13634157 0.038361005
0.10874066 0.0028985012 -0.021402217 0.12619323 -0.09114504 0.079163864 0.028544942 0.0449856
0.015776705 -0.116102256 0.108466 0.052468408 0.11363627 -0.016048897 -0.033187207 -0.040901225
0.042377137 0.12265908 -0.099797904 -0.1308924 -0.10090504 -0.032990098 0.005550525 -0.009006661

fc2.bias f4 [2]
00000000: ab86 b9bd 5b99 5b3d
-0.09058889 0.053613048
